model.pth (torch, 249839 bytes, 10 tensors)

net.0.weight f4 [6, 1, 5, 5]
-0.0549731 0.01760143 0.1880632 0.3711649 0.1508552 0.01592786 0.03400745 0.11099847
0.43080926 0.38460445 0.055023514 -0.009415028 0.04945056 -0.14145517 0.1986555 0.13044049
0.07394121 -0.38466308 -1.2883217 -0.4949376 0.0396696 0.21862948 -0.10985575 -0.5033923
0.037017133 0.02031887 -0.0058915187 -0.06962328 -0.13477585 -0.2586631 0.024950227 0.14657383
0.12845369 0.11838977 -0.00025391395 -0.054146577 0.43991348 0.063519455 -0.0337991 -0.10946731
-0.012464752 -0.06548646 0.07216366 0.0074266964 -0.03496838 -0.011221618 -0.027932901 0.018045165
-0.02428794 -0.006653716 -0.5135261 -0.267371 -0.27660975 -0.3380854 -0.73998547 0.19778945
-0.005291427 0.19212651 0.036274504 -0.19102086 0.26095402 0.2769889 0.25585902 0.1185813
-0.06358462 0.013698519 0.034285024 0.07451951 -0.023393583 -0.036805324 -0.11318457 0.029325243
0.1703224 0.020906588 -0.1593024 -0.0022336452 0.0830963 0.13375914 0.03671961 -0.0041829245
-0.043820735 -0.108415 0.26141146 0.11839127 -0.021499705 0.030542374 0.047269113 0.30035073
0.19681668 0.0315145 -0.014385073 -0.046883088 0.06767255 0.02933369 -0.034614608 -0.001083992
0.011634602 -0.009554726 -0.037756663 0.010395114 -0.17815517 -0.07196992 0.31023517 -0.04106403
0.025856603 -0.67793506 -0.108494714 0.3562609 0.22235155 0.07120836 -0.6788697 -0.12243522
0.5595922 0.13877773 -0.007428634 -0.31001407 -0.19078442 0.48207608 0.118025914 -0.12484663
-0.30384356 -0.019962989 0.44886142 0.025602238 -0.09526599 0.1740126 0.12552439 -0.113659024
-0.6931704 -0.17256403 0.35627973 0.11519355 -0.0934294 -1.119666 -0.3607609 0.28656572
0.13920033 0.32266858 -0.42732784 -0.57291293 0.18993427 -0.025280017 0.08201672 0.0164926
-0.35065234 -0.0015652836 0.09632463 -0.011711473 -0.06511465 -0.19836
00000000: 792b 61bd e030 903c a493 403e 5309 be3e
00000010: c979 1a3e 257b 823c 654b 0b3d 2a53 e33d
00000020: 0893 dc3e e0ea c43e 5660 613d 7d41 1abc
00000030: ac8c 4a3d a0d9 10be 596c 4b3e 3192 053e
00000040: 7d6e 973d 8ff2 c4be bae7 a4bf 7668 fdbe
00000050: 977c 223d 68e0 5f3e 0dfc e0bd 51de 00bf
00000060: 479f 173d c273 a63c a40d c1bb a696 8ebd
00000070: ae02 0abe 7d6f 84be 6b64 cc3c 7317 163e
00000080: 5d89 033e 5676 f23d c11f 85b9 cdc8 5dbd
00000090: 573c e13e 7d16 823d ed70 0abd 6630 e0bd
000000a0: f638 4cbc c41d 86bd 8aca 933d a55b f33b
000000b0: 013b 0fbd e1da 37bc 8ad3 e4bc 74d3 933c
000000c0: 80f7 c6bc 6a07 dabb 7276 03bf dae4 88be
000000d0: cb9f 8dbe 8819 adbe b06f 3dbf 5189 4a3e
000000e0: b563 adbb d0bc 443e 9394 143d f99a 43be
000000f0: c49b 853e 7dd1 8d3e f4ff 823e c1da f23d
00000100: a738 82bd c16f 603c 746e 0c3d af9d 983d
00000110: e6a3 bfbc 2ec1 16bd 50cd e7bd 7e3b f03c
00000120: ff68 2e3e 4b44 ab3c 2b20 23be 5962 12bb
00000130: 652e aa3d 28f8 083e 4d67 163d ea10 89bb
00000140: 5f7d 33bd af08 debd b9d7 853e 1f77 f23d
00000150: 2620 b0bc 0034 fa3c 429d 413d 92c7 993e
00000160: 508a 493e 5915 013d 5faf 6bbc 7b08 40bd
00000170: e897 8a3d 354d f03c 0cc8 0dbd bc14 8eba
00000180: 0f9f 3e3c 6d8b 1cbc bba6 1abd 4550 2a3c
00000190: 4f6e 36be f764 93bd 25d7 9e3e c232 28bd
000001a0: 3ad1 d33c 278d 2dbf 7a32 debd d467 b63e
000001b0: 20b0 633e b0d5 913d 68ca 2dbf 51bf fabd
000001c0: 6f41 0f3f c01b 0e3e e66b f3bb 2aba 9ebe
000001d0: fe5c 43be add2 f63e 92b7 f13d 97af ffbd
000001e0: 6291 9bbe 6c89 a3bc 2ad1 e53e c9bb d13c
000001f0: d11a c3bd 5c30 323e 7789 003e 10c6 e8bd
00000200: 9e73 31bf a0b4 30be 4c6a b63e 99ea eb3d
00000210: ea57 bfbd 3751 8fbf a7b5 b8be beb8 923e
00000220: 888a 0e3e d134 a53e b7ca dabe 6caa 12bf
00000230: 217e 423e 0a18 cfbc 62f8 a73d 7d1b 873c
00000240: b488 b3be 342a cdba d945 c53d 7ae1 3fbc
00000250: d45a 85bd e21e 4bbe

net.0.bias f4 [6]
-0.026022883 -0.014228448 0.09909629 -0.020988284 -0.017671192 0.26373866
00000000: f12d d5bc 701e 69bc fff2 ca3d 9fef abbc
00000010: 2dc3 90bc c108 873e

net.3.weight f4 [16, 6, 5, 5]
0.096285716 -0.41460237 -0.671241 -0.6386693 -0.5571758 0.019294934 -0.2464484 -0.45702872
-0.3471716 -0.4483924 -0.27888587 -0.3379326 -0.60880995 -0.5301991 -0.42419893 -0.34748393
-0.44448522 -0.7297239 -0.6082741 -0.4434371 -0.1523272 0.041912466 -0.20161141 -0.29123834
-0.1348624 0.06940605 -0.13241066 -0.052071493 0.13476741 0.2655601 0.0782109 -0.1496235
-0.12250858 -0.08208343 0.011238394 0.04628219 -0.12641704 -0.10605188 -0.06411756 0.075160086
0.08156928 -0.07400921 -0.07144207 0.0029459526 0.060421076 0.14179614 -0.040721133 -0.05498458
0.07813773 0.09974504 0.11259912 0.03626058 0.1173634 0.029419368 0.15656614 0.16190563
0.09609421 -0.016989753 -0.07563847 -0.05205651 0.124829255 0.10070494 0.07944748 0.010812615
0.12735836 0.020934109 0.005664569 0.025144296 -0.061231665 0.07539285 -0.036613367 0.07043683
0.01236971 -0.12901561 0.048402753 -0.061939258 -0.24583308 -0.041131422 0.14921314 0.16218041
-0.082512826 -0.10578838 -0.017162926 0.10510797 0.14640513 0.040457398 -0.06774727 -0.059724666
0.012865056 -0.007905205 0.037277676 -0.09067442 0.040084492 0.049320202 0.0042343363 0.08734635
0.103876755 0.04956708 0.17161576 0.06852764 -0.24929473 -0.72411317 -0.20115077 -0.025364622
-0.054379445 0.08705155 -0.34360912 -0.11659271 -0.026377564 -0.054824747 0.06439222 -0.05748785
-0.069059305 0.017622657 0.087911785 0.092115544 -0.08728789 -0.05041394 0.091959424 0.20624861
0.09041336 -0.5145867 -0.072835095 0.03890847 0.11022275 -0.027523633 -0.07070009 0.12826453
-0.3033971 0.046639107 -0.06542648 -0.13167387 0.02555523 -0.13563247 -0.023228442 -0.019212302
-0.016324809 -0.13115819 -0.33451787 0.043869168 -0.029107375 0.00025851582 -0.20157802 -0.53059685
0.023991076 -0.05948091 -0.13770793 -0.030358156 -0.16387731 0.1916193 0.21894932 -0.1552148
-0.2573299 0.18653697 0.22410904 -0.0209151 -0.4025932 -0.4314095 0.022327151 0.16325133
0.21851902 -0.28023502 -0.24761155 0.14553094 0.25465444 0.124295205 -0.24785721 -0.06228269
0.1758156 0.12544782 0.020198505 0.0621589 0.17551336 0.10702674 -0.05366612 -0.110336795
-0.061105024 0.023239132 0.17423709 0.19121052 -0.1652403 -0.133713 -0.11306958 0.11496069
0.009348604 -0.15812775 -0.10441229 0.061404746 0.16389616 -0.015725633 -0.25718054 -0.16589245
0.038890775 0.03555077 -0.09332205 -0.1531978 -0.10648403 0.2050189 0.2014967 0.006095343
0.24583516 0.21367642 0.19927855 0.16017216 0.0059780953 0.21844335 0.117330246 0.10932746
0.042333484 -0.101808205 0.15782033 0.024074206 0.15062717 0.045908604 -0.061223306 -0.07387039
-0.20963545 -0.096394636 -0.082487464 -0.08630595 0.13228475 0.10150463 0.26165512 0.17956908
0.13934842 -0.22263886 -0.017913707 0.05607819 0.12931693 -0.1420465 -0.13683496 0.017882276
0.07820095 0.075242214 -0.09474117 -0.123084985 0.040203907 0.0158505 0.011050084 -0.15448765
-0.13592495 0.057747368 0.10430938 -0.0635703 -0.21716265 -0.110741 0.13694556 0.15123557
-0.09644565 -0.20196657 0.22409871 0.09367419 -0.53989244 -0.4821723 0.122006044 0.1754593
00000000: 7231 c53d c346 d4be 73d6 2bbf d57f 23bf
00000010: 13a3 0ebf 6910 9e3c f85c 7cbe abff e9be
00000020: 7ac0 b1be b093 e5be 21ca 8ebe 8005 adbe
00000030: f8da 1bbf 21bb 07bf 9a30 d9be 6ae9 b1be
00000040: 9193 e3be 2fcf 3abf dab7 1bbf 300a e3be
00000050: a9fb 1bbe 68ac 2b3d 3973 4ebe 311d 95be
00000060: 5e19 0abe c224 8e3d a996 07be eb48 55bd
00000070: 7800 0a3e 7ef7 873e 092d a03d e736 19be
00000080: c7e5 fabd 5b1b a8bd 3e21 383c 6592 3d3d
00000090: 7873 01be ba31 d9bd 1150 83bd 88ed 993d
000000a0: cb0d a73d 2492 97bd 3850 92bd e210 413b
000000b0: 177c 773d 0233 113e 34cb 26bd 8337 61bd
000000c0: ad06 a03d 2147 cc3d 5e9a e63d f985 143d
000000d0: 395c f03d e300 f13c e052 203e 97ca 253e
000000e0: 0bcd c43d 182e 8bbc 58e8 9abd 3539 55bd
000000f0: 7ba6 ff3d 643e ce3d 5cb5 a23d 6527 313c
00000100: 3b6a 023e 027e ab3c d99d b93b 69fb cd3c
00000110: 0ece 7abd 9167 9a3d e6f7 15bd 2f41 903d
00000120: 53aa 4a3c ab1c 04be f741 463d 05b4 7dbd
00000130: abbb 7bbe 6c79 28bd 54cb 183e 9f12 263e
00000140: 7cfc a8bd 94a7 d8bd 4499 8cbc d942 d73d
00000150: 3aeb 153e a8b6 253d 15bf 8abd daa1 74bd
00000160: f5c7 523c d584 01bc 7ab0 183d 83b3 b9bd
00000170: a32f 243d fb03 4a3d 30c0 8a3b a5e2 b23d
00000180: 56bd d43d da06 4b3d 0bbc 2f3e 3858 8c3d
00000190: 1e47 7fbe 7b5f 39bf 78fa 4dbe 78c9 cfbc
000001a0: fbbc 5ebd 1548 b23d 89ed afbe 29c8 eebd
000001b0: c315 d8bc ea8f 60bd 11e0 833d 6178 6bbd
000001c0: f76e 8dbd 645d 903c 180b b43d 13a7 bc3d
000001d0: fec3 b2bd d97e 4ebd 3955 bc3d d632 533e
000001e0: a42a b93d f4bb 03bf 912a 95bd 7d5e 1f3d
000001f0: 77bc e13d 3e79 e1bc 35cb 90bd c757 033e
00000200: dd56 9bbe a608 3f3d 51fe 85bd 84d5 06be
00000210: 3459 d13c 3de3 0abe 9349 bebc 1e63 9dbc
00000220: 9bbb 85bc 554e 06be ed45 abbe 28b0 333d
00000230: 9772 eebc 6889 8739 786a 4ebe 32d5 07bf
00000240: ef88 c43c 41a2 73bd 4f03 0dbe abb1 f8bc
00000250: 74cf 27be da37 443e 4034 603e a1f0 1ebe
00000260: bfc0 83be 8c03 3f3e d77c 653e 2556 abbc
00000270: b220 cebe b5e1 dcbe 6ee7 b63c 5b2b 273e
00000280: 73c3 5f3e f77a 8fbe e28d 7dbe 1006 153e
00000290: 1162 823e 7c8e fe3d 48ce 7dbe 221c 7fbd
000002a0: 0109 343e 6575 003e 5677 a53c 559a 7e3d
000002b0: c6b9 333e d630 db3d 01d1 5bbd 42f8 e1bd
000002c0: 4349 7abd fe5f be3c 356b 323e b1cc 433e
000002d0: c134 29be 10ec 08be 0691 e7bd 8370 eb3d
000002e0: e32a 193c 3eec 21be 1cd6 d5bd 8b83 7b3d
000002f0: 65d4 273e 0bd3 80bc 2bad 83be b6df 29be
00000300: ef4b 1f3d af9d 113d a21f bfbd e2df 1cbe
00000310: 4d14 dabd 79f0 513e 2755 4e3e 71bb c73b
00000320: 36bc 7b3e fecd 5a3e ad0f 4c3e 2c04 243e
00000330: e6e3 c33b 9daf 5f3e d74a f03d 13e7 df3d
00000340: e065 2d3d d280 d0bd a79b 213e 4537 c53c
00000350: 023e 1a3e a90a 3c3d 4ac5 7abd 5c49 97bd
00000360: adaa 56be 8d6a c5bd 30ef a8bd 2dc1 b0bd
00000370: a775 073e a9e1 cf3d a9f7 853e f5e0 373e
00000380: 5ab1 0e3e 71fb 63be c4bf 92bc 3fb2 653d
00000390: a86b 043e a374 11be 771e 0cbe da7d 923c
000003a0: d227 a03d 9718 9a3d a907 c2bd fb13 fcbd
000003b0: daac 243d e8d8 813c 690b 353c 0332 1ebe
000003c0: e92f 0bbe 8188 6c3d 28a0 d53d 2531 82bd
000003d0: e35f 5ebe 2dcc e2bd 753b 0c3e 7fdd 1a3e
000003e0: 4c85 c5bd 53d0 4ebe 227a 653e 41d8 bf3d
000003f0: 6436 0abf 4adf f6be 4ede f93d 9aab 333e

net.3.bias f4 [16]
0.29075786 -0.0061651347 0.34330165 0.23819163 -1.1598628e-20 -0.050539125 0.06663833 0.13765119
0.08006664 0.7596327 0.18687235 0.52244806 0.28323576 0.36466426 -0.1496993 0.07036772
00000000: 37de 943e e604 cabb 3cc5 af3e 82e8 733e
00000010: 8617 5b9e 1d02 4fbd ad79 883d 6ff4 0c3e
00000020: fbf9 a33d 4a77 423f 775b 3f3e 28bf 053f
00000030: 4704 913e 46b5 ba3e c64a 19be f41c 903d

net.6.weight f4 [120, 16, 5, 5]
-0.018173033 -0.0024331755 -0.031273425 0.01730096 -0.0072860117 -0.06538243 -0.031389162 -0.037596125
-0.022873234 -0.0077296426 -0.03850099 -0.03187632 -0.027427418 -0.044958007 0.0013594109 -0.020818098
-0.027569065 -0.020000726 -0.018263599 0.013940151 0.037741914 -0.015976341 -0.005018636 0.0051126233
0.0075811935 -0.0005007423 -0.024627427 -0.011554386 -0.028550949 0.007030929 -0.0026017586 -0.039394584
-0.0014976047 -0.013428067 -0.013043543 -0.006852118 -0.040450938 0.019565158 -0.004636602 -0.0014874107
-0.005739385 -0.03001109 0.02385482 -0.011285757 -0.020395635 -0.0036006365 -0.017244698 0.016166678
0.008110337 -0.028194822 -0.000118146054 -0.014366169 -0.014134862 0.013875375 -0.03070847 -0.000253527
-0.008222612 -0.02850754 -0.012220857 -0.014980177 -0.0044660633 -0.01281125 -0.05465659 -0.03172251
-0.0026056191 -0.004418453 -0.020597346 -0.052854117 -0.021977415 0.0014691846 -0.0012392842 -0.010431314
-0.027365522 -0.007459992 0.0068760887 -0.008655684 -0.01999242 -0.016707068 -0.03185113 -0.015682345
-0.00473794 -0.0040789274 -0.0064047184 -0.03177611 0.004596501 0.013662692 0.038344655 -0.00043403247
-0.006522357 0.021374468 -0.0057485667 -0.017928582 -0.005919808 -0.025342755 -0.03863465 -0.024420276
-0.041901696 -0.036904305 -0.030035995 -0.025341017 5.3624643e-38 -4.050732e-39 -3.638874e-39 3.803969e-39
6.220386e-39 3.741583e-39 3.178165e-39 -2.071596e-39 6.318892e-39 -2.954978e-39 -1.671483e-39 -2.57657e-40
5.185258e-39 3.632267e-39 -6.239259e-39 3.786496e-39 2.705853e-39 -4.92455e-39 -9.948177e-38 5.053782e-39
5.308032e-39 -3.885073e-39 -1.7508704e-37 1.111141e-39 -5.0590406e-38 -0.013375731 -0.013155321 -0.016053457
-0.0035596134 -0.0016376803 -0.0038809194 -0.009644483 -0.0070571364 -0.003975213 -0.00850211 0.007462658
0.007900565 -0.014629233 -0.008146902 -0.0042020255 -0.0037610384 -0.0038803895 -0.019745523 -0.0073614316
-0.006995174 -0.012006684 -0.02262749 -0.016459052 -0.0024836091 -0.00864441 -0.0002938092 -0.0050837984
-0.011949178 -0.033263467 0.031971112 -0.005120785 -0.0041827075 -0.003877172 -0.020292282 -0.02410568
-0.0025926633 -0.0007579816 -0.0065377615 -0.00084166887 -0.018810892 2.7311185e-05 0.00010983975 -0.002867272
0.0034710146 -0.019442745 -2.8642313e-05 -0.0009911204 -0.0010531273 -0.00840526 -0.035027664 -0.001122187
0.02238455 -0.0129564535 -0.0033900307 -0.038074955 -0.0062088706 0.0034026196 -0.02620883 -0.013869992
-0.04872508 -0.014418824 -0.014918825 0.004812092 -0.017671295 -0.031038987 -0.010111851 -0.04678324
0.030348253 -0.005966574 -0.037350792 -0.006169398 -0.042189695 0.009061967 0.0010348677 -0.021009857
-0.008697041 0.026814548 0.01169743 -0.017966937 -0.010735303 -0.0018542976 0.02093302 0.017445432
-0.002277929 -0.007852897 -0.0021820287 0.023718089 0.0002562086 -0.00057643553 -0.0034172959 -0.008798075
-0.0028989143 0.0008230904 -0.0075007705 -0.0118342675 -0.0071475017 -0.02595507 -0.0038074357 -0.009396282
-0.00876438 -0.0026261176 -0.008616081 0.016013952 0.016158864 -0.01731846 -0.0008508524 -0.011081506
-0.02236932 0.009810211 -0.00994814 -0.008884241 -0.017952796 -0.026111016 -0.001974565 -0.0012960372
-0.003735443 -0.015723942 -0.028345196 -0.014816705 -0.010684154 -0.0016953989 -0.008414628 -0.026657378
-0.016482444 -0.0024177842 -0.012418996 -0.02387739 -0.022392768 0.0031165488 -0.016047 -0.031231718
00000000: 9ddf 94bc e975 1fbb 9018 00bd beba 8d3c
00000010: 7fbf eebb 39e7 85bd ec91 00bd 65fe 19bd
00000020: a660 bbbc f148 fdbb 37b3 1dbd be90 02bd
00000030: 77af e0bc e325 38bd 432e b23a b78a aabc
00000040: 85d8 e1bc 90d8 a3bc 8b9d 95bc 3b65 643c
00000050: 4497 1a3d d1e0 82bc 5f73 a4bb cb87 a73b
00000060: a96b f83b 3f44 03ba 75bf c9bc 9b4e 3dbc
00000070: aee3 e9bc b563 e63b 4482 2abb 375c 21bd
00000080: 464b c4ba 6501 5cbc 96b4 55bc bb87 e0bb
00000090: e2af 25bd 1c47 a03c a3ee 97bb 39f5 c2ba
000000a0: 7311 bcbb d1d9 f5bc 2f6b c33c e5e7 38bc
000000b0: bf14 a7bc a8f8 6bbb c144 8dbc fb6f 843c
000000c0: 38e1 043c d4f8 e6bc 2ec5 f7b8 1560 6bbc
000000d0: e995 67bc 8a55 633c 5490 fbbc d1eb 84b9
000000e0: 22b8 06bc a588 e9bc fd39 48bc 6b6f 75bc
000000f0: 0e58 92bb 47e6 51bc 97df 5fbd 76ef 01bd
00000100: 09c3 2abb acc8 90bb c4bb a8bc 8f7d 58bd
00000110: fb09 b4bc a891 c03a 7a6f a2ba 1ae8 2abc
00000120: a92d e0bc f372 f4bb d050 e13b 92d0 0dbc
00000130: 25c7 a3bc 43dd 88bc 5576 02bd 4378 80bc
00000140: b940 9bbb 86a8 85bb acde d1bb ab27 02bd
00000150: 3f9e 963b 7cd9 5f3c 490f 1d3d da8e e3b9
00000160: 7fb9 d5bb 8219 af3c 795e bcbb f6de 92bc
00000170: f3fa c1bb 9c9b cfbc 5e3f 1ebd 080d c8bc
00000180: 1da1 2bbd f828 17bd 0c0e f6bc f797 cfbc
00000190: ecfa 9101 cb1b 2c80 b39f 2780 eb6b 2900
000001a0: e8bb 4300 03be 2800 6e9b 2200 c48e 1680
000001b0: 80ce 4400 472d 2080 6a33 1280 3ece 0280
000001c0: 6476 3800 488d 2700 84f0 4380 363b 2900
000001d0: d176 1d00 a49f 3580 5668 0782 e307 3700
000001e0: a2cc 3900 014e 2a80 ee50 6e82 6919 0c00
000001f0: 5eb8 8981 e225 5bbc 6a89 57bc 8a82 83bc
00000200: 6748 69bb 6fa7 d6ba 0657 7ebb e503 1ebc
00000210: 8d3f e7bb 8142 82bb 6f4c 0bbc 5089 f43b
00000220: 5f71 013c 73af 6fbc 957a 05bc 25b1 89bb
00000230: c17b 76bb 224e 7ebb 5dc1 a1bc 2a38 f1bb
00000240: c637 e5bb afb7 44bc 495d b9bc 22d5 86bc
00000250: 0cc4 22bb 49a1 0dbc 670a 9ab9 fe95 a6bb
00000260: 7cc6 43bc 463f 08bd 24f4 023d 42cc a7bb
00000270: 180f 89bb 2718 7ebb 003c a6bc 4679 c5bc
00000280: ace9 29bb 49b3 46ba b83a d6bb 71a3 5cba
00000290: 4d19 9abc 531a e537 c459 e638 d7e8 3bbb
000002a0: f679 633b 6446 9fbc e644 f0b7 7be8 81ba
000002b0: 1709 8aba 37b6 09bc 2b79 0fbd 5916 93ba
000002c0: ce5f b73c 4e47 54bc 472b 5ebb 7cf4 1bbd
000002d0: c873 cbbb 7cfe 5e3b e6b3 d6bc f73e 63bc
000002e0: f393 47bd ee3c 6cbc 166e 74bc c1ae 9d3b
000002f0: 64c3 90bc 7945 febc 2dac 25bc c89f 3fbd
00000300: e69c f83c 4083 c3bb 25fd 18bd a928 cabb
00000310: 1acf 2cbd a578 143c 66a4 873a dd1c acbc
00000320: 097e 0ebc 2faa db3c 94a6 3f3c 662f 93bc
00000330: 20e3 2fbc e70b f3ba ba7b ab3c b9e9 8e3c
00000340: 4f49 15bb 70a9 00bc 5e00 0fbb 704c c23c
00000350: bc53 8639 ef1b 17ba b6f4 5fbb cd25 10bc
00000360: b6fb 3dbb a9c4 573a 06c9 f5bb 84e4 41bc
00000370: 9735 eabb ba9f d4bc 2c86 79bb ddf2 19bc
00000380: 7998 0fbc f11a 2cbb 772a 0dbc b12f 833c
00000390: 985f 843c 71df 8dbc bd0b 5fba 348f 35bc
000003a0: dd3f b7bc 02bb 203c 86fd 22bc 358f 11bc
000003b0: be11 93bc c5e6 d5bc b467 01bb cbdf a9ba
000003c0: 56ce 74bb 7fcf 80bc 2f34 e8bc c4c1 72bc
000003d0: 970c 2fbc 2638 deba 82dd 09bc 9360 dabc
000003e0: 3106 87bc b073 1ebb 0b79 4bbc 849a c3bc
000003f0: 0a71 b7bc 033f 4c3b 0075 83bc a9d9 ffbc

net.6.bias f4 [120]
-0.03378901 0.11506751 -0.034103382 -0.004649847 0.06862871 0.06394908 -0.014653526 -0.1273964
-0.019644143 -0.019259669 0.18128933 -1.3705221e-05 -0.07917132 0.11234382 -0.11180794 -0.20953023
-2.9730897e-20 -0.11673766 -3.1640275e-07 0.31347057 0.4376078 -3.0748592e-07 -0.07419492 -0.00056700245
-0.014126272 0.087771535 0.17684324 0.17456867 -0.014128089 0.1433171 0.105526015 0.09315011
0.022485128 0.26004666 0.0984014 -0.096962065 -0.049662933 0.2032128 -0.024548981 0.05918469
0.29291207 0.4259556 -2.2790095e-06 0.063483275 0.08396643 0.22420819 0.0005189017 -7.634209e-05
-0.056256454 0.16582322 -0.008507266 0.10462817 0.11676981 -0.07690829 0.07120336 -0.11117623
0.25084692 -0.359848 0.13206062 0.03965272 0.25992438 -0.15917166 -0.276943 -0.17380743
0.29493496 -0.034018707 -1.1874839e-05 -0.03605001 0.055426773 0.19392994 -0.08172723 -1.2095235e-23
-0.11424031 0.24064705 -0.029077861 0.14285302 0.102324806 -0.019896891 0.15672906 0.30460244
-0.056988634 -1.2762492e-10 -0.027961968 -0.14017525 0.31544966 -0.093511224 0.05121051 -0.029962316
-0.044181332 0.062212095 -0.04590766 -0.014817115 -0.05212253 -0.0365222 -1.135123e-09 -0.012072524
-0.0033877788 -0.123112835 0.05751024 -0.0019927565 0.15725516 0.09905282 -0.11316763 0.26968622
-2.3728177e-19 0.24734189 -0.2378336 -0.029762497 -0.010085133 -2.0816697e-27 -0.27615246 -0.1318823
-0.0062123947 -0.08019031 -0.00087752944 -8.480507e-30 0.33841324 0.098815255 0.10696137 -0.026877968
00000000: 5866 0abd 84a8 eb3d fdaf 0bbd be5d 98bb
00000010: 368d 8c3d bcf7 823d 5815 70bc 3474 02be
00000020: c1ec a0bc 74c6 9dbc e9a3 393e 7aef 65b7
00000030: 9324 a2bd 8414 e63d 90fb e4bd 188f 56be
00000040: 7366 0c9f 2714 efbd 10de a9b4 377f a03e
00000050: 210e e03e 8b14 a5b4 82f3 97bd e4a2 14ba
00000060: e171 67bc 90c1 b33d 6516 353e 21c2 323e
00000070: 8079 67bc b8c1 123e 061e d83d 7cc5 be3d
00000080: bb32 b83c d624 853e ac86 c93d 0c94 c6bd
00000090: 5c6b 4bbd 0417 503e f21a c9bc a56b 723d
000000a0: 92f8 953e da16 da3e 16f1 18b6 8503 823d
000000b0: 97f6 ab3d d596 653e e706 083a d919 a0b8
000000c0: 2b6d 66bd 90cd 293e 0f62 0bbc 4b47 d63d
000000d0: 0325 ef3d 1882 9dbd 11d3 913d 5db0 e3bd
000000e0: 026f 803e ff3d b8be e63a 073e e46a 223d
000000f0: cf14 853e e5fd 22be 79cb 8dbe 93fa 31be
00000100: b701 973e 3357 0bbd 0c3a 47b7 2da9 13bd
00000110: 2f07 633d 9295 463e 9b60 a7bd b4f4 6999
00000120: d3f6 e9bd 2e6c 763e b234 eebc 1048 123e
00000130: ab8f d13d cefe a2bc 957d 203e daf4 9b3e
00000140: ea6c 69bd 3953 0caf 7f10 e5bc 1a8a 0fbe
00000150: 9e82 a13e d082 bfbd 1dc2 513d 8873 f5bc
00000160: 7cf7 34bd 1cd2 7e3d ac09 3cbd 7cc3 72bc
00000170: 6f7e 55bd 4d98 15bd 9702 9cb0 d6cb 45bc
00000180: 7f05 5ebb 9522 fcbd db8f 6b3d e898 02bb
00000190: 7f07 213e 34dc ca3d 6ec4 e7bd 5014 8a3e
000001a0: 0211 8ca0 3147 7d3e a78a 73be 7bd0 f3bc
000001b0: 1d3c 25bc 47ed 2493 db63 8dbe 270c 07be
000001c0: 5891 cbbb d13a a4bd 010a 66ba 4f01 2c8f
000001d0: 8044 ad3e a75f ca3d 900e db3d 2f2f dcbc

fc.0.weight f4 [84, 120]
0.040641304 -0.57035875 -0.048857648 0.008133167 0.19743451 0.20205243 0.023712553 -0.06416477
0.0012010984 -0.02086061 -0.362796 -0.0046878206 0.18727696 -0.04875639 0.13940023 -0.2720798
2.1591406e-10 0.13661449 -0.00054469384 -0.20644796 0.058713716 -0.00036111329 -0.072913416 -0.0019271777
-0.27464524 -0.057043646 -0.2523428 -0.16597678 -0.001250256 -0.14782244 0.1306684 0.03660937
0.023769297 -0.26519343 -0.16900276 -0.030137291 -0.08098387 -0.16563004 0.21056837 -0.08730005
-0.24679777 -0.060848903 4.8739828e-08 0.061806604 -0.4057862 -0.018428247 -0.3143072 0.0018666857
0.08830237 -0.036187418 -0.017196862 0.27743092 0.13442676 -0.098026305 -0.22547549 -0.08797339
0.07653016 -0.059039872 0.22566295 -0.010463216 0.08522764 0.02557853 -0.028137913 0.048944313
-0.0011627331 -0.0036631247 -0.00033845755 0.0117985215 -0.3283545 -0.09513544 0.25972015 2.3735398e-14
-0.027202707 0.03429895 0.043138962 -0.2760625 -0.057065807 0.00703439 0.40796968 -0.20005293
0.060231473 -3.408026e-06 0.012940064 0.036735423 -0.2716489 -0.0144956615 0.31747347 -0.033956002
0.048075233 -0.084397145 -0.019606918 0.0016017153 -0.00064076466 -0.26678145 -9.811749e-10 -0.097696975
0.02186984 -0.20306736 0.12718491 0.00040454353 -0.12665232 0.044961967 0.110525995 -0.17387164
3.6344034e-08 -0.18568811 0.12382762 0.04128174 -0.019359132 -5.7179696e-15 -0.27240437 -0.24730462
0.024101673 0.21563125 6.226539e-05 2.2654863e-14 0.26162815 -0.031929675 -0.3051752 -0.012390672
0.027388308 0.071379766 -0.10441003 0.0011467788 0.07593949 0.10495851 -0.014222665 -0.089940876
-0.0015978317 -0.007938925 -0.22327738 -5.5130167e-05 0.012514009 -0.026774103 -0.07554956 0.1280493
5.262782e-23 0.022238452 4.100328e-06 0.18139495 -0.004922462 -5.0512856e-08 -0.10209337 7.017619e-06
-0.21978666 -0.14699455 -0.032326076 -0.041513495 -0.049812045 -0.007256944 0.18785247 0.14014427
0.02051389 -0.20302625 -0.0028076973 -0.025368396 0.00582514 0.034954146 0.060738023 -0.059215643
-0.019371249 -0.1530177 2.0663213e-13 0.20751227 0.14734182 -0.1064709 0.10641962 5.653103e-08
-0.12502235 -0.06935225 0.0017224264 -0.056608155 0.046467524 -0.17684145 -0.0058310754 -0.057125464
-0.1421833 -0.0866689 0.035850562 0.044614892 -0.04701963 -0.04705844 0.011149669 -0.23523276
-0.07181831 -0.049010705 1.0852923e-09 0.017038263 0.076228924 0.05910871 0.040108044 3.0547895e-34
-0.0073946323 -0.06324844 -0.026190082 0.02657773 -0.057794657 0.00071514666 -0.04015538 -0.0073596574
-0.025995335 -1.2640847e-11 0.074182436 0.22105421 -0.107630715 -0.12206968 -0.12211413 0.0068331873
-0.0094324965 0.009657123 0.00814444 0.00035961915 0.06975691 -0.20942542 1.228923e-16 -0.05474641
0.013865453 -0.020674666 -0.047047466 -0.00010079052 0.028668111 0.070276625 -0.049054492 -0.23271933
3.188127e-11 -0.12801094 -0.039863933 0.00037083353 0.0060911565 2.653303e-39 0.16463642 0.020642186
-0.0009786616 -0.078036234 3.681709e-05 -2.051829e-30 -0.14376605 -0.19576505 0.08740463 -0.0054786024
0.0031611312 -0.2585935 -0.21038596 0.0038657477 0.074034505 -0.073756285 0.032132324 0.048491653
0.01585651 -0.0010463281 -0.14418638 -0.00017705497 0.13206095 0.09178506 -0.016781058 -0.070150904
00000000: 7f77 263d 0803 12bf f51e 48bd fa40 053c
00000010: 462c 4a3e d5e6 4e3e d440 c23c d268 83bd
00000020: 2d6e 9d3a dfe3 aabc 66c0 b9be 4a9c 99bb
00000030: 88c5 3f3e c8b4 47bd efbe 0e3e 0b4e 8bbe
00000040: 6866 6d2f abe4 0b3e c9c9 0eba 1867 53be
00000050: cb7d 703d ce53 bdb9 a153 95bd 5a99 fcba
00000060: 4d9e 8cbe 99a6 69bd 1333 81be d1f5 29be
00000070: a1df a3ba c45e 17be f0cd 053e b5f3 153d
00000080: d4b7 c23c 6fc7 87be 0f0f 2dbe 7be2 f6bc
00000090: dfda a5bd ec9a 29be 3c9f 573e 5eca b2bd
000000a0: 8eb8 7cbe b33c 79bd 0256 5133 ec28 7d3d
000000b0: 35c3 cfbe d6f6 96bc e0ec a0be 94ab f43a
000000c0: dfd7 b43d 4239 14bd 6fe0 8cbc 6d0b 8e3e
000000d0: 2ba7 093e 04c2 c8bd 0ce3 66be 652b b4bd
000000e0: d8bb 9c3d cbd3 71bd 3014 673e e96d 2bbc
000000f0: d48b ae3d 118a d13c 7b81 e6bc d579 483d
00000100: d966 98ba 0911 70bb 0173 b1b9 964e 413c
00000110: 151e a8be 5fd6 c2bd 0afa 843e 1aca d528
00000120: 36d8 debc 0e7d 0c3d 7bb2 303d 1058 8dbe
00000130: d6bd 69bd bd80 e63b 67e1 d03e adda 4cbe
00000140: 47b5 763d 71b5 64b6 9002 543c e277 163d
00000150: 9115 8bbe 367f 6dbc e28b a23e 7315 0bbd
00000160: 89ea 443d 69d8 acbd b09e a0bc a6f0 d13a
00000170: fdf8 27ba 9497 88be 06da 86b0 5a15 c8bd
00000180: 6128 b33c e4f0 4fbe c33c 023e ea18 d439
00000190: 25b1 01be 0a2a 383d 745b e23d 680b 32be
000001a0: b018 1c33 0625 3ebe 5699 fd3d 0b17 293d
000001b0: 0b97 9ebc f602 cea7 9678 8bbe 6c3d 7dbe
000001c0: df70 c53c 70ce 5c3e 7a94 8238 8f0e cc28
000001d0: 20f4 853e b1c8 02bd ec3f 9cbe 3f02 4bbc
000001e0: 725d e03c 8e2f 923d edd4 d5bd 834f 963a
000001f0: 2a86 9b3d 7df4 d63d 2e06 69bc ec32 b8bd
00000200: 566e d1ba 4412 02bc d3a2 64be 913b 67b8
00000210: 8f07 4d3c 5d55 dbbc bab9 9abd 5b1f 033e
00000220: 167e 7e1a 6a2d b63c 8d95 8936 99bf 393e
00000230: 9b4c a1bb 79f3 58b3 5416 d1bd e378 eb36
00000240: c10f 61be bd85 16be 5968 04bd 0e0a 2abd
00000250: b707 4cbd a9cb edbb 665c 403e fb81 0f3e
00000260: bf0c a83c 1de6 4fbe 5801 38bb 62d1 cfbc
00000270: d1e0 be3b 142c 0f3d 6fc8 783d 1a8c 72bd
00000280: 74b0 9ebc acb0 1cbe a8a5 682a 197e 543e
00000290: c6e0 163e 6a0d dabd 88f2 d93d 86cc 7233
000002a0: dc05 00be 8d08 8ebd 0ac3 e13a f4dd 67bd
000002b0: bb54 3e3d ed15 35be 9b12 bfbb 64fc 69bd
000002c0: 8098 11be 777f b1bd 0ad8 123d 1bbe 363d
000002d0: a897 40bd 5ac0 40bd 1aad 363c dbe0 70be
000002e0: 7a15 93bd 73bf 48bd 5429 9530 d493 8b3c
000002f0: e91d 9c3d fa1b 723d 5548 243d 8d06 cb07
00000300: ac4e f2bb 6688 81bd 958c d6bc 8ab9 d93c
00000310: 17ba 6cbd ae78 3b3a f879 24bd 4829 f1bb
00000320: 2bf4 d4bc 5061 5ead f6ec 973d 095c 623e
00000330: 7e6d dcbd abff f9bd f916 fabd eee8 df3b
00000340: c28a 1abc e938 1e3c 4270 053c 448b bc39
00000350: b6dc 8e3d 9e73 56be 68af 0d25 c63d 60bd
00000360: ed2b 633c eb5d a9bc d8b4 40bd 805f d3b8
00000370: 63d9 ea3c 31ed 8f3d 5ded 48bd fa4d 6ebe
00000380: 1e37 0c2e 4d15 03be 5d48 23bd 6f6c c239
00000390: 5398 c73b 54e4 1c00 7396 283e cd19 a93c
000003a0: 6f46 80ba 76d1 9fbd 0d6c 1a38 d276 268e
000003b0: 6837 13be a276 48be 3301 b33d d985 b3bb
000003c0: fb2a 4f3b 5e66 84be 6b6f 57be 7c58 7d3b
000003d0: 679f 973d 890d 97bd 2f9d 033d 2f9f 463d
000003e0: 83e5 813c f224 89ba 98a5 13be d5a7 39b9
000003f0: fc3a 073e cef9 bb3d 6e78 89bc 47ab 8fbd

fc.0.bias f4 [84]
-0.03098618 0.05029888 0.21216913 -0.03409649 0.4347384 0.35123354 -0.107608296 -0.016860435
0.0148009015 0.44760644 0.32883182 0.49658442 0.14920844 0.39135137 -0.07138726 0.46812373
0.56676614 -0.21317524 -0.05645442 -0.0016867227 0.41910198 -0.06661251 0.20182419 0.08833993
-0.08692328 -0.120618746 0.31390983 0.0370708 0.3079399 -4.154852e-06 0.40257782 0.42377558
0.22055082 0.0042254366 -0.079299055 -8.2492224e-05 -3.0640468e-09 0.07172107 0.19114375 0.33197704
0.27394447 0.41303197 0.13928074 -0.14958845 0.51092446 -0.11541938 0.27850565 0.5301696
-0.102872945 -0.034702465 0.1893252 0.40360492 -0.030492252 0.18031684 0.12740715 0.3215807
-0.036767192 0.31270915 -0.3993618 0.3523572 0.49808395 0.26663536 -0.032992084 -0.0145316515
0.22821134 0.25989088 -0.18078077 0.22375028 -0.14704111 0.49648213 -0.060078993 0.038350854
-0.16799647 0.03484816 0.31578964 0.1286666 -0.050902504 -0.034251902 0.29625478 0.17781103
0.35073838 -0.16779654 0.30509743 0.62550604
00000000: bbd6 fdbc 3306 4e3d dd42 593e c3a8 0bbd
00000010: 0896 de3e e2d4 b33e bd61 dcbd e51e 8abc
00000020: 7b7f 723c ac2c e53e a55c a83e 5040 fe3e
00000030: 19ca 183e 355f c83e 7c33 92bd eaad ef3e
00000040: 9617 113f 9c4a 5abe c03c 67bd 0615 ddba
00000050: 8994 d63e 246c 88bd 00ab 4e3e 91eb b43d
00000060: d504 b2bd f606 f7bd cab8 a03e 8dd7 173d
00000070: 4caa 9d3e e869 8bb6 ae1e ce3e 1df9 d83e
00000080: 13d8 613e 8875 8a3b 8b67 a2bd adff acb8
00000090: 488f 52b1 7fe2 923d 30bb 433e e5f8 a93e
000000a0: 7342 8c3e ed78 d33e 9c9f 0e3e b72d 19be
000000b0: f2cb 023f ff60 ecbd 4b98 8e3e 32b9 073f
000000c0: 0daf d2bd 2c24 0ebd 77de 413e 4ea5 ce3e
000000d0: e3ca f9bc faa4 383e 0577 023e 3aa6 a43e
000000e0: 3299 16bd 6a1b a03e 2679 ccbe 2a68 b43e
000000f0: dc04 ff3e 6e84 883e b522 07bd 2a16 6ebc
00000100: 3cb0 693e 6b10 853e 981e 39be cb1e 653e
00000110: f291 16be e832 fe3e 6415 76bd c915 1d3d
00000120: 4407 2cbe f2bc 0e3d 2eaf a13e 2dc1 033e
00000130: 257f 50bd b94b 0cbd b5ae 973e 1814 363e
00000140: fb93 b33e dbd2 2bbe bb35 9c3e 2a21 203f

fc.2.weight f4 [10, 84]
0.32156816 0.077640556 -0.04327369 0.0017541865 -0.02232572 0.06958929 -0.046230707 -0.008149893
0.011281951 0.07189205 0.19446173 -0.3618186 0.20694964 -0.31864503 -0.17819117 0.1231327
0.106433526 0.06250662 0.0037246356 0.0051219 0.16194451 -0.21908525 -0.34257653 -0.48679695
0.008204311 -0.22168548 0.12811351 0.019103454 0.07619701 0.0015441901 -0.2852811 0.09125245
-0.40664944 0.13579573 -0.0123287635 -0.0016082284 1.9101378e-08 -0.16428429 0.19095506 0.042992868
0.19564848 0.12526354 -0.22466706 0.04996117 -0.063072525 -0.086608365 -0.18076125 -0.61029226
-0.20663239 -0.0021481758 0.06463888 -0.3028059 0.046361517 -0.0034819385 -0.34964398 -0.24675292
-0.23835966 -0.5482843 0.09480935 -0.19041844 0.23720735 -0.109386824 0.027969902 0.0042359396
0.036277045 -0.31192693 0.13202445 0.17165491 -0.12668611 -0.31293634 -0.030946122 -0.12331842
0.009964809 -0.08932358 0.09162152 -0.0919171 -0.0079701 0.120463304 0.2807411 0.15209875
0.11142761 0.051225577 0.12214992 -0.024341574 -0.19121845 -0.1396845 0.7671697 0.0055357036
-0.04349797 0.1699046 -0.025790121 0.0059759193 -0.06791616 -0.62696224 -0.11418586 -0.47035593
-0.4798079 -0.5156686 0.19037102 0.11712829 -0.11827779 -0.25786725 0.028104737 -9.620144e-06
-0.091646664 0.31900454 -0.39663494 0.011397339 -0.021542935 0.4082035 -0.17288312 0.048073895
-0.18764856 1.3134871e-08 -0.381381 -0.35671958 -0.61438125 0.32203382 0.13964628 7.4838754e-06
5.7614542e-12 0.13699184 0.0015591852 -0.27220014 -0.14705594 0.11448074 0.088630155 0.13005842
-0.23538867 -0.17977025 -0.31781998 0.024013905 -0.007517336 0.026294917 -0.03888487 0.18458194
-0.02672525 0.1819627 0.114879236 0.044000957 0.29310867 -0.35364655 -0.18723397 -0.1206293
-0.4414706 -0.24931017 0.010923886 -0.0032044097 0.18102893 0.08466712 -0.2257428 -0.39484125
-0.05969278 -0.5847259 -0.0059762294 -0.3606759 0.0706176 -0.24141064 -0.46239105 -0.43846303
-0.013075601 -0.15737113 -0.3554418 0.048445784 0.3653359 -0.16971801 0.146876 -0.4645022
-0.08467465 0.082106456 -0.18898697 -0.0065745343 -0.07498358 -0.0076597556 0.0002940267 0.011324827
-0.072968684 0.1226452 -0.5940113 -0.00022891199 -0.28191054 -0.26832423 -0.50751287 -0.092223495
0.1926453 -0.18443784 -0.0065643485 -0.002823189 -0.12155339 0.058251467 -0.14379612 -0.5332151
-0.025488684 -0.054811202 0.17729194 0.028719781 0.2819651 -7.115739e-06 -0.09804631 0.15986529
-0.03856964 0.054351967 0.10355539 -0.00037682202 1.7323984e-07 -0.47917834 0.06169739 0.09671115
-0.283732 0.08013972 -0.004902214 -0.20196778 -0.18668127 -0.29874247 0.08790714 0.087112956
-0.12846373 0.011115642 -0.03144153 -0.29884696 0.019175893 -0.3459261 -0.26628548 -0.035283722
0.0066902256 0.27370596 0.32410806 -0.10423209 -0.20036347 0.13606241 -0.01977246 -0.005101985
-0.22967327 -0.09659956 0.18130957 0.126234 0.10734354 0.12788709 -0.4965055 0.12557949
0.06403005 -0.12289271 -0.0288651 -0.31036994 -0.016654622 -0.259411 -0.18479471 0.16992779
0.2844475 0.07758458 -0.059438296 -0.26061067 -0.2081225 0.17495674 -0.23758171 -0.0038971938
00000000: 95a4 a43e 0302 9f3d c13f 31bd bbec e53a
00000010: 6ee4 b6bc d484 8e3d 695c 3dbd 2187 05bc
00000020: efd7 383c 243c 933d fa20 473e 4a40 b9be
00000030: 9bea 533e 7125 a3be bf77 36be ff2c fc3d
00000040: d2f9 d93d 7903 803d 0419 743b 9cd5 a73b
00000050: c8d4 253e e257 60be 3166 afbe 733d f9be
00000060: 606b 063c 8501 63be 3030 033e d97e 9c3c
00000070: 2e0d 9c3d 6c66 ca3a 5d10 92be 91e2 ba3d
00000080: 5b34 d0be 090e 0b3e 95fe 49bc 31cb d2ba
00000090: 6014 a432 243a 28be b989 433e 4a19 303d
000000a0: 1358 483e 1645 003e 1f0f 66be 15a4 4c3d
000000b0: 2b2c 81bd ba5f b1bd 7a19 39be 1d3c 1cbf
000000c0: 7197 53be 69c8 0cbb 6461 843d 6009 9bbe
000000d0: 93e5 3d3d 3c31 64bb 8904 b3be ccac 7cbe
000000e0: 8e14 74be 5c5c 0cbf 682b c23d 0dfd 42be
000000f0: 7ce6 723e 3306 e0bd 2321 e53c a3cd 8a3b
00000100: 3d97 143d e3b4 9fbe 6b31 073e 4ec6 2f3e
00000110: 01ba 01be 3139 a0be b982 fdbc 5e8e fcbd
00000120: 7043 233c 48ef b6bd 10a4 bb3d 083f bcbd
00000130: 0695 02bc 77b5 f63d 4cbd 8f3e c6bf 1b3e
00000140: 2934 e43d e9d1 513d bd29 fa3d fb67 c7bc
00000150: c5ce 43be 7409 0fbe 3c65 443f d964 b53b
00000160: ed2a 32bd 79fb 2d3e ce45 d3bc a5d1 c33b
00000170: a117 8bbd 9980 20bf 47da e9bd 7ed2 f0be
00000180: 62a9 f5be db02 04bf 9ff0 423e f5e0 ef3d
00000190: a03b f2bd 2d07 84be e83b e63c 3466 21b7
000001a0: 3fb1 bbbd 9054 a33e bc13 cbbe e8bb 3a3c
000001b0: cf7a b0bc 0d00 d13e 4608 31be 22e9 443d
000001c0: f226 40be c6a7 6132 5f44 c3be f3a3 b6be
000001d0: 1748 1dbf 9ee1 a43e 6fff 0e3e 001e fb36
000001e0: 91b6 ca2c 9747 0c3e 935d cc3a d15d 8bbe
000001f0: d595 16be e174 ea3d ba83 b53d 092e 053e
00000200: ba09 71be b115 38be 4db9 a2be cfb8 c43c
00000210: fc53 f6bb 7068 d73c be45 1fbd 0c03 3d3e
00000220: e9ee dabc 6e54 3a3e ce45 eb3d 593a 343d
00000230: 5712 963e 2911 b5be 43ba 3fbe 7f0c f7bd
00000240: 6f08 e2be 2a4b 7fbe 19fa 323c 1301 52bb
00000250: a65f 393e f465 ad3d 1f29 67be a228 cabe
00000260: 6b80 74bd 99b0 15bf 3fd4 c3bb 83aa b8be
00000270: f69f 903d 5a34 77be 85be ecbe 3a7e e0be
00000280: 0c3b 56bc e625 21be 78fc b5be 166f 463d
00000290: 4f0d bb3e 8fca 2dbe aa66 163e 3bd3 edbe
000002a0: e769 adbd 6e27 a83d cd85 41be 316f d7bb
000002b0: fe90 99bd b0fe fabb 9827 9a39 c48b 393c
000002c0: 9b70 95bd 682d fb3d 2011 18bf 1808 70b9
000002d0: 9456 90be cb61 89be 5dec 01bf acdf bcbd
000002e0: cf44 453e 46dd 3cbe bf19 d7bb 4005 39bb
000002f0: fcf0 f8bd 1799 6e3d 4a3f 13be c980 08bf
00000300: a5cd d0bc b681 60bd 058c 353e bf45 eb3c
00000310: bb5d 903e bcc3 eeb6 81cc c8bd bab3 233e
00000320: 33fb 1dbd 2ba0 5e3d d914 d43d 3290 c5b9
00000330: ce03 3a34 dd56 f5be 67b6 7c3d 7f10 c63d
00000340: 5245 91be 4b20 a43d c0a2 a0bb a4d0 4ebe
00000350: 6029 3fbe c6f4 98be a908 b43d 4768 b23d
00000360: ff8b 03be 621e 363c d5c8 00bd 7802 99be
00000370: c316 9d3c 3a1d b1be 9256 88be aa85 10bd
00000380: ae39 db3b 3023 8c3e 7ef1 a53e a277 d5bd
00000390: 152c 4dbe f253 0b3e dbf9 a1bc 8d2e a7bb
000003a0: 782f 6bbe fdd5 c5bd 37a9 393e 7c43 013e
000003b0: eed6 db3d d5f4 023e f835 febe e997 003e
000003c0: 3022 833d 2caf fbbd 8176 ecbc cfe8 9ebe
000003d0: 466f 88bc 85d1 84be d33a 3dbe 8d01 2e3e
000003e0: 1aa3 913e aae4 9e3d 9275 73bd c36e 85be
000003f0: 111e 55be dc27 333e 9f48 73be 1068 7fbb

fc.2.bias f4 [10]
-0.041275047 -0.18650831 -0.107751645 0.22998834 -0.17800926 0.29008916 0.27260587 0.1107806
-0.015696285 -0.33284795
00000000: 0610 29bd 09fc 3ebe e5ac dcbd 1082 6b3e
00000010: 0f48 36be 9186 943e ff92 8b3e f0e0 e23d
00000020: 7f95 80bc 0c6b aabe
