model_lenet.pth (torch, 249863 bytes, 10 tensors)

net.0.weight f4 [6, 1, 5, 5]
00000000: dc1b 573b 3529 afbe 8de1 033e b2b7 5d3e
00000010: b8d7 d53d ee8b 033d 0cbf 0ebf f548 95be
00000020: 6921 1f3f d7cd 193e 96cc ca3e 28a2 25bf
00000030: f5aa b2be 8da2 ae3e 0028 493e 2919 eb3e
00000040: d935 d0be 74a5 9bbe eaa4 993e 484b 81bd
00000050: 7473 803e bf53 a4be 5659 b4be 2fd6 e03e
00000060: 5a74 9fbb e188 ef3d 8402 10be cdf6 ebbd
00000070: eccb cfbd acda 6cbe 6568 bc3d 1543 733d
00000080: fa33 ab3c 37a0 963e c381 e0bc e676 67bd
00000090: b5b3 c6bd 2ff9 bbbd c659 d63e 9988 903e
000000a0: 705a babd 4ce4 0dbc 7dc6 143e 52d2 f03e
000000b0: c608 ce3e 2fae cdbe 2b00 c3be 6134 80be
000000c0: 9247 a43e c6b1 aa3d 07c8 923e b758 05bd
000000d0: 3e54 c5bc 9a93 9fbe 1c42 a2be 3de0 863e
000000e0: 7b75 fb3c 6b51 c4be 7782 10bf 28cd 94bd
000000f0: 366b b83e 822c 413e ebaf 8bbe babd 28be
00000100: 06bb 73bd ed96 053f cd8c babd 82d4 2cbe
00000110: 16f3 6e3b 990b bc3e 4b14 f23e f0dc a4bb
00000120: 4790 67be e6e5 893d e299 aab9 1bc1 17bf
00000130: 15da 87bf ed8b 09bf 7df7 1ebd 6692 033e
00000140: 0717 5fbf c3e9 00c0 0cf9 07c0 9a13 58bf
00000150: 7039 ef3d e08a 323d fdc9 4cbf 9bdd a6bf
00000160: a570 09be 6101 2c3f b7fb d93e 5a32 7c3e
00000170: 33b6 0dbe 58e8 df3d 4f20 073e 47cc 153f
00000180: 7c28 993e 7947 33bc 46cf 04be 2826 b63d
00000190: 418a 38be 1274 82bd 14eb 15be 816d 863e
000001a0: f81c 823e adc5 a7be b37a bcbe 8e57 1fbd
000001b0: f2e4 02bd 9107 913d 20cb 31ba ee5e 29be
000001c0: 896e 943c e2f2 c73e d8e7 ef3e e1e9 2bbe
000001d0: 4daa aebe 1db8 fbbd d745 873e 6e23 f33e
000001e0: ae9b 7ebe 2487 c3bd 8f6c 36be 1f0b 793e
000001f0: 659d 97bd ab8f a43d 995a 3cbd ece5 873e
00000200: f3ef d9bd f2b2 0c3e 364e 9cbe 34df 89be
00000210: b30e 393e c6de b63d 7b62 3d3e 7a49 e4be
00000220: 6068 8cbe f6f9 973e 5b54 533e 2dd4 6f3d
00000230: 80d8 51be 659c 7cbe 539b f93a d09a 913e
00000240: bb0e fd3d edbc c6be dfaa 063e 6afc cf3e
00000250: 3846 e43e 0922 21bd
0.0032823002 -0.34211126 0.1287901 0.21652105 0.10441536 0.03211587 -0.55760264 -0.29157224
0.62160355 0.15019928 0.39609212 -0.64700556 -0.34896055 0.3410839 0.19644165 0.45917633
-0.40666083 -0.30399668 0.30008632 -0.06313187 0.25088084 -0.32095143 -0.35224408 0.4391341
-0.004866165 0.116960295 -0.1406346 -0.11521683 -0.10146317 -0.23130292 0.09199599 0.059390146
0.020898808 0.2941911 -0.027405625 -0.056509875 -0.09702245 -0.091783874 0.41865367 0.28229216
-0.09099281 -0.008660387 0.14528842 0.47035462 0.4024107 -0.40171954 -0.38086066 -0.25039962
0.32085854 0.08334689 0.28668234 -0.03255531 -0.024088021 -0.311673 -0.31691062 0.26342955
0.030695667 -0.38343367 -0.56449074 -0.07265693 0.36019295 0.18864635 -0.27282652 -0.16478625
-0.05950453 0.5218342 -0.09108887 -0.1687794 0.0036460808 0.36727598 0.47281107 -0.0050312206
-0.22613631 0.06733303 -0.00032539578 -0.5927903 -1.0613428 -0.53729135 -0.038810242 0.12848815
-0.8714451 -2.0142677 -2.1245756 -0.8440491 0.11680877 0.043589473 -0.7999571 -1.3036379
-0.13421877 0.67189604 0.42574856 0.24628583 -0.13839035 0.10932988 0.13195919 0.5851483
0.299137 -0.010942333 -0.12969694 0.088939965 -0.1802149 -0.06369795 -0.14640456 0.2625542
0.25412726 -0.32768002 -0.36812362 -0.038901858 -0.03195662 0.07081521 -0.0006782282 -0.16540119
0.018119114 0.39052492 0.4685657 -0.16788436 -0.34114304 -0.12290976 0.2642047 0.47487968
-0.24864075 -0.095472604 -0.1781485 0.24320649 -0.074030675 0.08035215 -0.04598484 0.26542604
-0.1064147 0.13740137 -0.3052842 -0.26928103 0.18072014 0.089292094 0.18494599 -0.44587308
-0.27423382 0.29682893 0.20637648 0.058551956 -0.20492744 -0.24669035 0.0019043483 0.28438425
0.12356325 -0.38816014 0.1315112 0.40622264 0.44584823 -0.0393391

net.0.bias f4 [6]
00000000: 74cb 02bc 90b1 e7bb fd96 fc3d 4e33 ef3e
00000010: 195d 2c3e 0f25 45bd
-0.007983077 -0.0070707276 0.12333486 0.4671883 0.16832389 -0.048131045

net.3.weight f4 [16, 6, 5, 5]
00000000: 9328 463e 1e88 423e 73b8 f53c fcc4 003c
00000010: 8b76 4d3e fb2e c43e 3e29 4d3e c955 34bd
00000020: 9e06 b23d eb99 9e3d 868a 933d c31a 8f3e
00000030: 3732 443e 0c0e 6e3e b96d 2bbd a949 85bd
00000040: 8a53 733e c80a b43e afb1 b33e a1cc c03d
00000050: 9e0c 7bbc 1d5e 163e c2d8 843e 3721 483e
00000060: b129 d83e 0149 6bbd dbff 1c3d c091 9a3d
00000070: 0ccc 1dbe ed65 aabd de7e ebbd 37cf 243d
00000080: 55e5 573d e7f2 2fbe 2bfd 12be c673 8bbe
00000090: cb1f ebbd e0cd 4cbe 19bb b3bd 545e 84bd
000000a0: b804 16be 03a5 02be 014b 5dbe 4020 d5bb
000000b0: 2248 a63d cf13 f7bd 4c64 15be 4b2f 0abe
000000c0: 0233 a2bd 0d94 753d 32a8 e03d 5d93 193e
000000d0: 3bd9 d43b 1875 92bd 852d 0b3d cb16 db3e
000000e0: 99e7 35bc da48 633d 6eac d03b a50c 0fbd
000000f0: aeb0 c93e feaa 58be 11ed 193d 24e3 1b3e
00000100: c5ba bfbd 4ac7 fb3e 43d1 d9bc 9633 6e3e
00000110: 1caf 203d d3b6 42be eb78 153e 01d8 4dbe
00000120: 3acd 2e3e 4da4 12bd 6735 bdbe 1d7d 59be
00000130: 514d 9f3e c1e3 2a3f 7bbf d43e 2aa8 083e
00000140: beea 92bd 941c 48bd 97ec d3bd 71be d1bc
00000150: 2875 bc3d 644c f5bd 28f9 653e 0aae 1dbe
00000160: 5b26 a0bd a247 70bd 7502 23bd ca3e b43e
00000170: b8a4 bbbe d4ef 76be 1b24 a1bc 896b de3d
00000180: d771 6d3e 329f c6be 6a25 cfbe 6406 8a3d
00000190: 5642 35be 2136 b6bd 3398 19bd 9143 babd
000001a0: 0fe1 393d a611 63bd da1e ee3c 7223 a1bd
000001b0: e093 1bbe 360f 523d a603 91be c87a d83d
000001c0: c6e4 98bc e6d4 dfbd cf61 e83d 2755 2fbd
000001d0: adf7 853c 44c9 9d3d 380e 8e3c 06a0 5a3e
000001e0: 7618 51bd 8c02 a8bc fcb7 2ebc 4594 91bd
000001f0: ecc5 473e 6724 aa3d 0508 09be 00d7 143d
00000200: 2490 82be a5a3 aebb 737a 22be 3e49 bfbd
00000210: ce65 65bb cd60 a7be 5d14 37bd 3680 5cbe
00000220: d633 193d c4f5 fd3d e57b 44be 1c36 09be
00000230: af12 3fbe 033f dabd d622 d1bc 9611 60be
00000240: 42fd ecbc b0c2 35be 1e95 e9bd 2eed d4bd
00000250: ddf0 40be 8ca1 cdbd cb14 363e 0e37 843e
00000260: 5887 b73e 6002 073f 2f84 013e d6bd 07bd
00000270: 8c82 e73d d0af 2e3e 2452 d53e 7b28 903e
00000280: b856 3ebc 6120 e03c 8895 753d 3c49 fd3d
00000290: 69e5 2b3e 9152 a1bc b596 dd3c 3c16 afbd
000002a0: f9e7 41be 6b90 03be 4058 1d3d 1a78 5abc
000002b0: 565d a4be d6ee 1fbf 4f68 01bf 6131 28be
000002c0: f600 4fbe b74c 3cbe 13a3 89bd 5683 7bbd
000002d0: 528e 49be d182 60be 8100 15be 1681 3abe
000002e0: 3d3b 13be 6ed9 09be 23f5 b2bd 70dd 88bd
000002f0: 72c3 82bd cf8e e3bd 4cc3 073e 377c 4e3e
00000300: 9fc7 3a3e 28fa 443e 2262 393e 1f91 273e
00000310: 6bf9 9c3e 6a3f ac3e 0619 a23e be3f d13d
00000320: 78bd 0b3e 0218 f53e cd9f 013f 2e93 393e
00000330: 9b0d b9bd eec4 ee3d 0d16 673e 4699 293e
00000340: 5122 3d3e 8685 47ba afad 483e bc06 b73d
00000350: 03b4 b0bc 320d 8c3d f0cd 903d 1ba2 6c3d
00000360: 2752 81bc 8dfe a23c 5dd0 97bd 11a6 013e
00000370: 70c6 c5be 5126 c3be 9751 5cbe ba62 a9be
00000380: 4266 123d 046b b0be 92fe 4cbe 3e9f 933e
00000390: 6d75 7c3e f847 803e 7931 aabe f5de 33be
000003a0: 9ada 983d ba30 1dbe 3704 173e ad0a 6abe
000003b0: d24e 143e 7b8b 503e 1a4f 4fbe 7768 10be
000003c0: 6eb7 b7bd 245a ed3d 4755 233e 4d8f 2fbe
000003d0: ebce ccbe 324c 87be 23ef 82be 2606 95be
000003e0: e4ee c7be b9d1 49bf 816c 3e3c 40a2 79bd
000003f0: 8303 1ebd a8ee 133e ece2 b1bc b2fc 19bd
0.19351415 0.18997237 0.029995179 0.007859465 0.20064752 0.38317093 0.20035264 -0.044027124
0.086926684 0.07744201 0.072041556 0.27950105 0.1915978 0.23247546 -0.041852687 -0.0650819
0.23762336 0.35164475 0.350965 0.0941403 -0.015322832 0.14684339 0.25946623 0.1954392
0.42219308 -0.05744267 0.03832994 0.07547331 -0.15409869 -0.08320222 -0.11498807 0.040236678
0.052708942 -0.17182504 -0.14354388 -0.27236766 -0.114806734 -0.2000041 -0.087759204 -0.06463304
-0.14650238 -0.1275826 -0.21610643 -0.0065040886 0.08119227 -0.12064325 -0.14589041 -0.13494603
-0.07919885 0.059955645 0.10969581 0.14997621 0.0064956225 -0.0715124 0.033978958 0.42790827
-0.01110258 0.0554894 0.0063682115 -0.03492417 0.39392608 -0.21158978 0.0375796 0.15223366
-0.09361795 0.49175483 -0.026589042 0.23261866 0.039229497 -0.19015054 0.14596908 -0.2010193
0.17070475 -0.03580122 -0.36954805 -0.21239133 0.31113675 0.66753775 0.41552338 0.133454
-0.0717368 -0.04885538 -0.1034786 -0.025603505 0.09202033 -0.11977461 0.22458327 -0.15398422
-0.07819816 -0.058662064 -0.039797265 0.35204154 -0.36649108 -0.24114925 -0.019670537 0.108603545
0.23187958 -0.3879333 -0.40458232 0.067395 -0.17701086 -0.08897043 -0.037498664 -0.090949185
0.04538065 -0.055436753 0.029067446 -0.07868089 -0.15193129 0.051284038 -0.28323096 0.10570294
-0.018663775 -0.10929279 0.113467805 -0.042805817 0.016353453 0.07704404 0.017340764 0.21350107
-0.05104872 -0.020509027 -0.0106639825 -0.07108358 0.19509095 0.083077244 -0.13381965 0.036337852
-0.25500596 -0.0053295665 -0.15867023 -0.09340142 -0.0035003307 -0.3269104 -0.044697154 -0.21533284
0.03740295 0.12400392 -0.19187887 -0.13399547 -0.18659471 -0.1065655 -0.025529306 -0.21881709
-0.028929356 -0.17750049 -0.11405395 -0.10396801 -0.18841882 -0.10040578 0.1778137 0.25823253
0.35845447 0.52738 0.1264808 -0.033140026 0.11304197 0.17059255 0.4166423 0.28155884
-0.011617355 0.02735919 0.059957057 0.12367484 0.16786732 -0.019692691 0.027049402 -0.08549163
-0.18936147 -0.1284806 0.03841424 -0.0133342985 -0.3210246 -0.6247381 -0.5054979 -0.16425087
-0.2021521 -0.1838864 -0.06720557 -0.06140455 -0.19683197 -0.21924902 -0.14550973 -0.18213305
-0.14378066 -0.13461849 -0.08738162 -0.06682861 -0.063849345 -0.11111223 0.13258094 0.20164572
0.18240212 0.19236052 0.18103841 0.16363953 0.3065904 0.3364213 0.31659716 0.10217236
0.13646495 0.4786988 0.5063446 0.18122551 -0.09035798 0.11658655 0.22567005 0.16562375
0.18470122 -0.0007611144 0.19597505 0.08936831 -0.021570211 0.06838454 0.070705295 0.057771783
-0.015786244 0.01989677 -0.07412789 0.12661006 -0.38627958 -0.3811517 -0.21515499 -0.33083135
0.035742052 -0.34456646 -0.20018986 0.2883243 0.2465417 0.25054908 -0.3324087 -0.1756552
0.0746357 -0.15350619 0.14747702 -0.22855635 0.14483193 0.20365708 -0.20245019 -0.1410235
-0.08970533 0.115894586 0.159505 -0.17144509 -0.40001616 -0.2642532 -0.25573072 -0.29106253
-0.39049447 -0.78835636 0.011622549 -0.06094575 -0.038577568 0.14446509 -0.02171465 -0.037594505

net.3.bias f4 [16]
00000000: 242d 313e 62c1 44bd a111 013f caa8 cebd
00000010: 12a0 66bd 04bd 913e c700 213e 912f a73e
00000020: 3390 003f 67a3 a5bd e394 393d 7b03 d13e
00000030: 0593 833d 1997 713e 17d2 c23a 75db 21bd
0.17302376 -0.048035987 0.50417525 -0.10090788 -0.056305 0.2846452 0.15722953 0.32653478
0.5022003 -0.08087807 0.045308005 0.40822968 0.06424526 0.23592795 0.0014863637 -0.03951593

net.6.weight f4 [120, 16, 5, 5]
00000000: 01f8 8b3b 5750 7c3e 7111 4a3e 9fcc 803c
00000010: 9da2 be3d 087b debd 4798 eb3c 6a93 1c3e
00000020: ee59 c6bd b61c 913d 0202 67be b9e3 6dbd
00000030: 1fe5 183e 50c2 d5bd ca84 3b3b 58b4 58be
00000040: 30ce 46be 7bad a73d 79a4 6f3d 2eee c03b
00000050: 6758 753d 33c9 f63c 21a9 193c 2604 063d
00000060: 5065 fe3d 0737 3f3b 5e79 b8bc 0792 503e
00000070: f09b 9e3d e64f f6bd 2ef6 59be 5aff 90bd
00000080: 7a2e 903d 4eaa 0e3e 5a3b 80be d2b8 2f3e
00000090: fcd6 66bd 83cd a2bd 53dd 823d d7a0 8d3d
000000a0: 3d94 793d b9d9 c33c caff de3b 1552 67be
000000b0: 2797 73bd c274 893d cdad 7f3e 6de3 433e
000000c0: 7a6a 9cbe 405f babd e50a 953e 3dd2 f5ba
000000d0: ece7 5dbe e33b 293e f74f 923e fa29 213e
000000e0: e89f dabc bf24 273b 71df c9ba 93f3 8c3e
000000f0: 6e97 313d 23d6 23bd 42d6 63bd cd33 363c
00000100: dbe7 afbb bd40 ca3c 7725 d3bc 0baa 9c3c
00000110: 5442 683c f9d3 4c3c 3d6c 85be 9d5e edbc
00000120: ef7d 803e 6de3 e83d e5bb 91bd 4a0f 42bd
00000130: d375 36be f31b b4bc d15d cf3c 89e9 c63d
00000140: fe97 0ebe 34de 753b da4e 9bbc ab8b afbd
00000150: a8f3 203c e2ba 49be 8ac4 213e 0c94 5d3d
00000160: 0a55 49be b2b1 b03c f391 06be c9d5 703c
00000170: 1f51 d6bd 6837 68be 0ffe 523e 656b af3c
00000180: 6c4b 9d3c 927a b0be 3256 653d a3d1 7e3c
00000190: 1880 893e 12e8 6a3e 2764 633e d86e 57bc
000001a0: a22e 1abe 47d0 01bc 5d4a bf3d 0a44 093e
000001b0: 2a57 2cbc c05c 8bbc 7dab 6fbc 6f00 273d
000001c0: 257a 6d3d 7067 5b3e b901 e33c 0e9e 70bd
000001d0: ab5c 12be 6ca1 48bd 0f19 373c bc02 0dbe
000001e0: 1bd3 a33c 2985 1cbe 06f9 04bd 6c27 363e
000001f0: 51d2 52be 54be 2f3e d7a4 6abd c1a9 a5be
00000200: 0ac1 883d bd09 993e 5e95 563c 9d8f a43d
00000210: 9303 08be fa89 b03d 8c4c a93b f4e1 543d
00000220: 1b7e 8ebd a21d 25be 7660 643e c0a9 da3d
00000230: 8faf 2fbe 02c4 79be 77f7 8fbc 56d8 553d
00000240: 7978 a9bd 6bf6 813d 8601 b7be e6bf 9d3e
00000250: 16fb bfbc 8978 433c 4140 ab3d 80aa d33b
00000260: c8cf f4bb 944f 4ebc 085a 49bd e122 393d
00000270: ec18 423d 2abb d23d 0529 c83d 0ae6 99bd
00000280: 408f 9b3d c155 253d 285f 303e 132d eabd
00000290: 3484 e73d 48ae f73d 7b26 c4bd b925 393e
000002a0: f5b8 34bd fa9f a8bb 0dbd 41bc d89e 6bbe
000002b0: f313 11bd 6bba 51bd 4452 57bd 3ea3 9abc
000002c0: 4797 843d 2937 cabd 4767 58bd 369f 7c3e
000002d0: a75a fe3d b81c 44be 71ee 72bd c2cd 913b
000002e0: a827 fb3d 00b5 603d 0b69 53be ceea 80bd
000002f0: 8996 a5bc 06f6 213d 98bf f93d 23f1 1dbd
00000300: ebde 66be b303 9fbd 70ed 173e 5182 953e
00000310: 7e62 2b3e d370 5b3d 69a6 9f3d 041f d23d
00000320: dd8c f83d 3823 3ebd f315 42bd ed1d e93d
00000330: 54d9 4a3d 046a 4dbe 3682 2c3d dd92 81bd
00000340: 5c3f 903e a1ab 493e 85f5 24bd b87e 30be
00000350: 26d4 efbc 5cc7 2b3e 96b1 22be 872a 413e
00000360: 8e18 6a3d b214 0a3e 1dff 103e dba0 69be
00000370: 719f a63d 0247 993c cf57 ee3d d5c6 11be
00000380: a2e7 8abd 6153 36be 7c79 083d d50e c23d
00000390: f451 ccbd 306b b63d 88a5 bdbc 93df 803b
000003a0: 319e 7a3d e47d 18be d7d9 9abd 29c8 d93d
000003b0: fc6f b0bd 1fd8 29bd af56 673c 7e5a b1bc
000003c0: 1adf 40bc aeeb 30be 4a38 eebc 130e 413e
000003d0: e4ea b7bd 8919 293d 3e35 1cbd 1204 fb3d
000003e0: afc3 183e c613 0abe e090 bd3c 641b dfbe
000003f0: f831 223e a34b 503e f9a5 833e 862f e43c
0.0042715077 0.24640022 0.19733216 0.015722571 0.0930836 -0.1086331 0.028759135 0.15290609
-0.096851215 0.07085554 -0.2255936 -0.0580785 0.14931153 -0.10437453 0.0028613084 -0.21162546
-0.19414592 0.08187386 0.058506463 0.005887768 0.05989876 0.030125236 0.009378702 0.0327188
0.124216676 0.0029177086 -0.02251881 0.20368205 0.077445865 -0.12026958 -0.21285316 -0.070799544
0.07040115 0.13932154 -0.25045282 0.17160347 -0.05635737 -0.079493545 0.063898705 0.069154434
0.060932387 0.02390753 0.006805395 -0.22589906 -0.059470322 0.06711723 0.24968643 0.19129725
-0.30549985 -0.09100199 0.29109874 -0.0018754672 -0.21670502 0.16526751 0.28576633 0.15738669
-0.026687577 0.002550408 -0.0015401674 0.27529582 0.043357305 -0.03999914 -0.055624254 0.011120749
-0.0053682155 0.024689073 -0.0257747 0.019124052 0.01417597 0.01250171 -0.26059142 -0.02897578
0.2509608 0.11371503 -0.07115916 -0.047377862 -0.17818384 -0.021985983 0.02531329 0.09712512
-0.13925168 0.0037516477 -0.018958498 -0.085715614 0.009823717 -0.19700196 0.1579763 0.054096267
-0.19661346 0.021569107 -0.13141613 0.014699408 -0.10464691 -0.22677386 0.20604728 0.021413514
0.019201003 -0.34468514 0.055990405 0.015552911 0.2685554 0.2294009 0.22206174 -0.013148986
-0.15056852 -0.007923192 0.093403555 0.13404861 -0.010518828 -0.017012 -0.014628288 0.040771898
0.057977814 0.21426177 0.027710782 -0.058744483 -0.14293163 -0.04898207 0.011175408 -0.13770574
0.019998124 -0.15285172 -0.03246405 0.17788476 -0.20588042 0.17162448 -0.05728611 -0.32356074
0.06677444 0.29890242 0.013097135 0.080352046 -0.13282613 0.08620067 0.005166596 0.0519733
-0.069576465 -0.16124585 0.22302422 0.106769085 -0.17156814 -0.24391177 -0.017574055 0.052208267
-0.082749315 0.063458286 -0.3574335 0.3081047 -0.023435157 0.011930593 0.08361865 0.006459534
-0.0074710585 -0.012592215 -0.049158126 0.04519928 0.04738705 0.10289605 0.09773449 -0.075145796
0.07595682 0.040364984 0.17223799 -0.114343785 0.113045126 0.120937884 -0.09577652 0.18080796
-0.0441217 -0.005146024 -0.011824858 -0.23009813 -0.035419416 -0.051203173 -0.05256869 -0.018876668
0.06474166 -0.09873802 -0.052832868 0.24670109 0.12419634 -0.1915158 -0.059309427 0.004449577
0.12263423 0.054860115 -0.2064554 -0.062947854 -0.020213382 0.039541267 0.12194747 -0.038560044
-0.22545974 -0.077643774 0.14836669 0.29200986 0.1673679 0.053574394 0.07795412 0.10259822
0.121362425 -0.046420306 -0.047384214 0.11382661 0.049523667 -0.20059973 0.042116366 -0.0632684
0.2817334 0.19694377 -0.04027321 -0.1723584 -0.029275965 0.16775268 -0.15888056 0.18863879
0.057152323 0.13484457 0.14159818 -0.22815268 0.0813588 0.018710617 0.11637842 -0.14236005
-0.06782462 -0.17805244 0.03331898 0.09475485 -0.09976569 0.08907163 -0.02315022 0.003932902
0.06118602 -0.14891773 -0.07561081 0.10633881 -0.08615109 -0.041465875 0.014119788 -0.021649595
-0.011771942 -0.17277405 -0.029079575 0.18853025 -0.08980349 0.041284118 -0.038136713 0.12256636
0.14918397 -0.13484105 0.02314037 -0.43575585 0.15839374 0.20341353 0.25712565 0.027854692

net.6.bias f4 [120]
00000000: 6167 413e 7c70 54b6 bb47 a9bc 37d7 393d
00000010: 5095 8aa2 e060 8fb9 11e9 193e 0bfa 0c3d
00000020: 27a3 d0bc 6f5e d33c 54eb 823c 9a7b 593d
00000030: 9b9b 42b6 28cf 003e 03bf fb3d 034f 333d
00000040: 45dd 053d 864c aabd 891e 04bc ef99 2e3d
00000050: d53c 6fbc 4db2 9913 4b10 81bd 6d51 4ab8
00000060: 6cba cd3d 15ff 2e3e 0663 fb3d ad20 283d
00000070: 6cf0 36bc 454b 4d3d 1859 703d b434 52bc
00000080: f273 a2b7 357b 013c 06aa 12bd a763 a73d
00000090: 4502 4d3d 6c3d 3b3d 074f 303e bd76 bebc
000000a0: 3928 5d3d cc74 04a6 0750 043e 7c71 93bb
000000b0: 8820 80bc a807 e83d 3c78 3bbb a0e6 1c3c
000000c0: e922 3f3d e599 99bc b7da 29b9 f9d2 b5ba
000000d0: dfe8 88bd e02b d93d 3489 153d aa7c adbd
000000e0: a649 ce3d c318 12bb 7c54 d73d ac41 803d
000000f0: ceee ceb3 c0bb 4a3b bbdc 6f95 27b2 24b7
00000100: 2e0e 94bd cfdc 29bc 65d0 e83c cb64 ecbc
00000110: 8d89 2e3c a3a1 813c 95cb 3bbb 7a3d 573d
00000120: 1961 5e3d 37df aabc 4dfb 8704 4cd3 aab7
00000130: eed2 86b9 61d4 323e 38fd 5fa7 5780 0db0
00000140: b33c 073e e77b 2d3e bd4a 48bc aebf 639e
00000150: ec2f 6d3e 8831 bcb6 ce44 3fa7 2224 2f3d
00000160: ac3b 99bd 51c1 eeae 13b5 ee3d fbd7 0e3d
00000170: 41b6 dabc b331 97bd f879 e73d 208d fd3a
00000180: 3d06 233e 32a4 053d 2a06 bdbc 3d49 5fb8
00000190: e771 963b fd8c 3db5 4bd6 cb3d d923 973b
000001a0: 55c1 9f3d 6acb 503d f708 b23d 4287 e6b8
000001b0: 9861 72af b318 183e b2ce a83d f3a7 57b9
000001c0: e2e0 c83b 87bf 00bb f6a5 21bc 0e24 240c
000001d0: e0b3 0e3e 5188 02be c74f 0abc 9256 213d
0.18887092 -3.1655936e-06 -0.020664087 0.04537126 -3.7563066e-18 -0.00027347263 0.15030314 0.034418147
-0.025468422 0.025801865 0.015981354 0.05309639 -2.8998827e-06 0.12579024 0.12292292 0.043776523
0.032681722 -0.08315377 -0.008063921 0.04262727 -0.014601906 3.8798448e-27 -0.06301936 -4.8236387e-05
0.10045323 0.17089494 0.122747466 0.041046787 -0.0111657195 0.05012061 0.058678716 -0.012829948
-1.9365896e-05 0.00790291 -0.03580668 0.08173304 0.050050993 0.045712873 0.17217647 -0.023249978
0.053993437 -4.595499e-16 0.12921153 -0.0044996124 -0.015640512 0.11329585 -0.00286056 0.00957647
0.046664152 -0.01875014 -0.00016198574 -0.0013872079 -0.06685042 0.106040716 0.0365078 -0.084710434
0.10072641 -0.0022292591 0.10514161 0.06262526 -9.636061e-08 0.0030934662 -4.843979e-26 -9.816641e-06
-0.07229267 -0.010367586 0.028419683 -0.028856656 0.010652912 0.015824145 -0.002865528 0.052548863
0.05429182 -0.02085839 3.196913e-36 -2.0363972e-05 -0.00025715627 0.17463829 -3.1084737e-15 -5.1477883e-10
0.13206749 0.16941796 -0.01222485 -1.2056918e-20 0.23162812 -5.608603e-06 -2.6543874e-15 0.04275907
-0.07482085 -1.0857327e-10 0.11655631 0.034873944 -0.026698234 -0.07382526 0.113025606 0.0019344427
0.15920348 0.032627292 -0.023074228 -5.323555e-05 0.004591215 -7.061315e-07 0.099529825 0.0046124277
0.07800547 0.05097524 0.08693116 -0.000109924484 -2.2044444e-10 0.14853172 0.08242549 -0.00020566564
0.0061303237 -0.001964541 -0.009866228 1.264495e-31 0.13935804 -0.12747313 -0.008441872 0.0393892

fc.0.weight f4 [84, 120]
00000000: a2dc 8bbe 1e7c 6fb8 35ba ee3d 681d 9e3e
00000010: ad24 0036 fa01 333a 6f26 f2bd e2f7 05be
00000020: 9251 e6ba 51c7 a4be 9a47 b73e c393 8bbc
00000030: cf3a 473b 6410 a33d e9f8 1d3e 49d1 25bc
00000040: 1711 90be 8552 bc3b 102e 463b 6b7b 0b3e
00000050: 214b ff3c 956d 3038 a9c2 31bd 659b ca3b
00000060: 8d21 14be 2a7a c83e 412d cfbd 8460 aebe
00000070: 6c49 9abd 3053 223e 0891 273d 4347 afbc
00000080: 6555 21bb 05a4 5dbe a182 4abc 52aa febe
00000090: 3a33 f1bc 4590 2a3e 2d83 943b 8bdf 3dbc
000000a0: 99de a73e b637 71b3 c43f 843e 05dd 01bc
000000b0: 3458 573c 0829 463e 7850 8bbd 91e9 afbc
000000c0: 0219 9dbd 74ca 0e3e 6dd7 16bb 7a96 473c
000000d0: 796e 8fbc 6eb6 dd3d 0725 9a3e 0891 71bd
000000e0: f696 643e 259a 5e3c 1c31 a2be e707 e53e
000000f0: 7b8f 323b 0cf6 fa3d b502 06b6 567f 963b
00000100: 0796 9a3d 0406 c8bb 5408 6ebd 8c4f 92bc
00000110: 275a 98bd 4d41 0a3d d447 cf3b bf8b 81bb
00000120: 6cc7 353e 1e03 343b c168 1f34 1b99 5d3b
00000130: 4232 9c3c f8bc 173e 6acd bcb6 2eac 8238
00000140: 6c5b d8bd e918 f2be ae89 213c 3a28 b435
00000150: 0188 c13d 41f2 34ba 0cd8 d3b9 cc9c 88be
00000160: d784 d7bc 5ee6 b9b7 8a72 103e a3e0 e6be
00000170: 3e7b d2bd 14d0 01be b21d 423d ad02 77be
00000180: 3eba 183e eec6 89bd 5ffc 2a3c 57d6 993c
00000190: 96c7 bbba 3b5b 44b9 f26c a63d baf1 b53d
000001a0: d9d6 633e 1377 b23d 76c8 58be 75b6 af39
000001b0: d3ec 21b7 de84 f3bd 909d 843e f957 473c
000001c0: 5a3f 263d d7f0 b2bb 2594 d83c 2d07 a49a
000001d0: f133 023e 47f8 443d 6635 3dbe ad7f d0bd
000001e0: 8b6c f62b 94ec 4c00 af4f 58b3 a557 ccb5
000001f0: 51f1 3100 de5e 9521 fa74 05b2 eb97 472e
00000200: ee7d 3900 6aa6 d7a4 31cf cfb3 4d8b c12f
00000210: 197d 1d00 3be5 c0af 2a14 462e cfd0 68b2
00000220: cc98 acb2 ad05 11ac fcbf 1000 b0a0 b8b3
00000230: 1a86 2e00 8dc6 3e80 cc8c 5ab4 3d9a a801
00000240: 950f 85b0 3203 a6b3 8e66 ccb2 f361 1e2f
00000250: d140 dbb8 c3b0 8eb4 a9ec 91a1 e79b bd81
00000260: 2c70 0c80 f034 8130 df1b 4d02 0eed 60b1
00000270: 62d5 82b2 0e8c b92e 473a a0af 12f5 87b4
00000280: bf98 94b3 0284 8b01 e943 28b3 aede d581
00000290: 9364 d7b3 4def b0b3 fb7b 34ab 6c88 7c2f
000002a0: fd9b 0caa e88b 372d 0b30 3580 585d eab1
000002b0: 78ca 012e 0c94 adb3 008c ecb2 4adc 4aac
000002c0: 83f9 92b3 bc09 7f01 5050 58b3 a003 1f2f
000002d0: f40e 0700 1a99 a5a9 eec4 3780 18a3 3900
000002e0: b018 cdb3 4dbb 3300 5805 d1b1 a468 2580
000002f0: ec27 0ab4 4a4a 0e35 3e53 0080 a362 57ae
00000300: bd93 3caf 7e88 8c81 2f1e 1602 5581 3f80
00000310: 9060 1480 bded b1b3 2dc5 a581 d195 ca01
00000320: 9f22 0cb5 fb27 38b4 00b4 1f00 c2a6 2000
00000330: fae2 c0b2 dccf eb81 3ffc 2c00 effe f1b1
00000340: c0e8 0f2f 460b 3a82 3ef4 5c30 32b9 05b3
00000350: 6860 2ab1 1bce a9b2 4f62 89a9 833c 3630
00000360: c467 82b7 75a3 54b5 c4d5 1182 431f 2300
00000370: 43c2 bab2 4b62 9c01 25df deb6 349e 83b1
00000380: 003a 1db4 3357 5bb1 9a5f 1eab ce1f 0680
00000390: dd1d 1400 8001 37ad c602 fdb2 5a99 a501
000003a0: defe 7eb3 b47a 7481 8d93 0402 3850 0981
000003b0: 94d0 bab5 32fe 3487 4ab8 33b2 af2b 66ad
000003c0: 5f41 8bbc 346a 3d80 e657 1bbd 393d 42bd
000003d0: f64e 1280 2547 3900 3880 90bc 2d81 5bbd
000003e0: fcd0 2a80 20cb 05bd a922 d6bc c801 22bd
000003f0: 02fe 4500 0e38 683c b53d c5bc 5959 9fbb
-0.27316767 -5.7097634e-05 0.1165661 0.3088181 1.9094834e-06 0.00068286026 -0.11823737 -0.13082841
-0.0017571917 -0.32183316 0.35796815 -0.017038232 0.0030400043 0.07962111 0.15426983 -0.010120698
-0.2813804 0.005747142 0.0030239858 0.13621299 0.031163754 4.2063726e-05 -0.043398533 0.0061830753
-0.14465924 0.39155704 -0.101160534 -0.3405801 -0.07533535 0.15852046 0.040909797 -0.021396285
-0.002461755 -0.216446 -0.012360246 -0.4973932 -0.029443372 0.16656597 0.004532239 -0.011588941
0.32787016 -5.6162854e-08 0.258299 -0.00792623 0.013143588 0.1935159 -0.068024576 -0.021473678
-0.076707855 0.13944417 -0.0023016587 0.0121818725 -0.017508732 0.10825811 0.30106375 -0.058976203
0.22323212 0.013586556 -0.31678092 0.44732592 0.0027246166 0.12253961 -1.9969132e-06 0.0045928163
0.07548147 -0.0061042327 -0.05811341 -0.017860197 -0.0743907 0.033753682 0.0063257013 -0.0039534266
0.17751855 0.0027467678 1.4846138e-07 0.0033813182 0.019066934 0.1481818 -5.62675e-06 6.230954e-05
-0.10564312 -0.4728463 0.009859486 1.3422753e-06 0.09449769 -0.0006902554 -0.00040406024 -0.26682127
-0.02630846 -2.2160992e-05 0.14106193 -0.4509326 -0.10277413 -0.12677032 0.0473916 -0.24122114
0.14914796 -0.06727396 0.0104361465 0.018778963 -0.0014326449 -0.00018726003 0.081262484 0.08883996
0.22249927 0.08714118 -0.2117022 0.00033514542 -9.651488e-06 -0.11890577 0.2590146 0.01216697
0.04058776 -0.0054608393 0.026437828 -6.7840403e-23 0.12715127 0.04808834 -0.18477401 -0.10180602
1.7509478e-12 7.064366e-39 -5.036389e-08 -1.5224692e-06 4.586507e-39 1.0121744e-18 -7.768216e-09 4.538229e-11
5.279798e-39 -9.35233e-17 -9.6768765e-08 3.5205475e-10 2.708106e-39 -3.5087475e-10 4.5037897e-11 -1.3551655e-08
-2.009292e-08 -2.060889e-12 1.538239e-39 -8.5973966e-08 4.27254e-39 -5.765027e-39 -2.0354054e-07 6.1934774e-38
-9.681452e-10 -7.7305586e-08 -2.3795362e-08 1.4404815e-10 -0.00010454807 -2.6578172e-07 -9.888226e-19 -6.9651344e-38
-1.142266e-39 9.401031e-10 1.506902e-37 -3.273104e-09 -1.5231027e-08 8.437705e-11 -2.914524e-10 -2.5324022e-07
-6.9195714e-08 5.124996e-38 -3.9177312e-08 -7.856337e-38 -1.0030012e-07 -8.239167e-08 -6.4120904e-13 2.2967733e-10
-1.2488617e-13 1.0433411e-11 -4.884516e-39 -6.8209083e-09 2.9511033e-11 -8.08287e-08 -2.753768e-08 -2.8828212e-12
-6.844041e-08 4.6843087e-38 -5.0364463e-08 1.4462254e-10 6.48213e-40 -7.354031e-14 -5.121597e-39 5.29313e-39
-9.550547e-08 4.750801e-39 -6.083308e-09 -3.435451e-39 -1.2866775e-07 5.3007227e-07 -2.9862e-41 -4.8972947e-11
-1.7150988e-10 -5.1623735e-38 1.1028922e-37 -5.832032e-39 -1.87135e-39 -8.285449e-08 -6.089436e-38 7.4418057e-38
-5.2204445e-07 -1.715088e-07 2.911472e-39 2.998557e-39 -2.2454959e-08 -8.662363e-38 4.13125e-39 -7.0430057e-09
1.3088464e-10 -1.3668357e-37 8.0382623e-10 -3.113491e-08 -2.4793056e-09 -1.9767915e-08 -6.101076e-14 6.6297207e-10
-1.5545527e-05 -7.9214016e-07 -1.0714265e-37 3.225457e-39 -2.174159e-08 5.7446393e-38 -6.642093e-06 -3.8305874e-09
-1.4642865e-07 -3.1918261e-09 -5.626555e-13 -5.62422e-40 1.847423e-39 -1.0402679e-11 -2.9454338e-08 6.0831476e-38
-5.9370784e-08 -4.4903757e-38 9.740173e-38 -2.522048e-38 -1.3918784e-06 -1.3616396e-34 -1.0461074e-08 -1.3083686e-11
-0.016998945 -5.640064e-39 -0.037925623 -0.047421668 -1.681365e-39 5.260145e-39 -0.017639264 -0.05358999
-3.93206e-39 -0.03266442 -0.026139574 -0.03955248 6.42777e-39 0.014173521 -0.024077276 -0.004862946

fc.0.bias f4 [84]
00000000: 7b06 efba 2526 57b4 6b22 30bd 8ede 043d
00000010: 815e 65bc f99a 0b3e db5d d9bc b470 893d
00000020: 4965 ac3d 7986 153d 5f87 993d 44d7 ddbd
00000030: 8e95 3d3e 0936 52bb 9f34 d43d e596 2d3d
00000040: 9245 b7bc 9971 683d bb2d 99bb 2f09 3caa
00000050: c771 94bb f2b5 033d 4dc1 603d aeea e4bc
00000060: e2e6 9fbd 0e30 153e 57a5 993b 1fb0 533d
00000070: 1fa9 013e 5a5d 503d 69d2 0fbc d27c 703d
00000080: ab3a 3b3e 6ba9 883d c8f1 423d f8b2 f73d
00000090: 0fd9 243e 4e39 b9bc 827e 03bd fc43 883d
000000a0: ddee af3b 014b 84ba 3078 9f3d 9863 033d
000000b0: 67d8 8e3d 112d c23d ed57 a23c 2e15 f43d
000000c0: 681d 0e3e aae2 583c 37fe 203d c414 a63d
000000d0: 1cc0 bda9 debf 31a7 33bd 293e 006c a63d
000000e0: 9a71 18b9 9231 413e c064 833b ee36 513e
000000f0: ff7d 3fa5 1de4 723d 82ad 2b3e 0e76 0dbc
00000100: e860 e83d c36d a9bc e296 4a3e 2470 c0ba
00000110: 8117 6abc f176 ae3d e5a0 9d3d b483 543c
00000120: 19cd cd3d 678f 02bc f963 f8b7 d857 423d
00000130: c9f8 2b3e ede6 5abc e229 3c3e cc09 f63d
00000140: 50ce d33d 65f0 2ebd 019a d23d 9fb0 063d
-0.0018236184 -2.0037312e-07 -0.043001574 0.032438807 -0.013999582 0.13633336 -0.026534012 0.067109495
0.08417756 0.036505196 0.07496523 -0.10832074 0.18514082 -0.0032075664 0.10361599 0.042380232
-0.02237204 0.05674896 -0.004674641 -1.670094e-13 -0.004530165 0.03215594 0.054871846 -0.027943935
-0.07807709 0.14569113 0.0046888995 0.051681634 0.12662171 0.050870277 -0.008778193 0.058712788
0.18284099 0.06672939 0.04759386 0.120946825 0.16098426 -0.022610333 -0.03210307 0.06653592
0.005369051 -0.0010093154 0.07786596 0.032077402 0.06974869 0.09481252 0.019817317 0.11918102
0.13878405 0.013237635 0.03930494 0.081094295 -8.426612e-14 -2.4667696e-15 0.1657608 0.08126068
-0.0001453817 0.18866566 0.004009813 0.2043111 -1.6609298e-16 0.059299577 0.16765407 -0.008634103
0.113466084 -0.020682221 0.1978412 -0.0014681858 -0.01428783 0.0851878 0.07696704 0.012970854
0.10048885 -0.00796876 -2.9610457e-05 0.047447056 0.16794123 -0.013360721 0.18375352 0.12013587
0.10342085 -0.042709727 0.1028328 0.032883283

fc.2.weight f4 [10, 84]
00000000: c9a9 eb3e d9a2 1cbb 0a5c 123c 5757 363d
00000010: 0210 18be aea5 9cbe b6e5 fbbd 8d69 38bc
00000020: 3e15 b83d 4b60 91be 430c 603e d4b1 ae3e
00000030: be00 5fbd 14ba dcba 6110 9cbe 690c 043e
00000040: 3392 0e3e 24ef debe 6180 f43b 9c2d ba38
00000050: 72c2 9abb 2be0 fc3d e5a6 b2bd 66e8 723d
00000060: 6623 97bd 2df9 e13d 39bd abbe 07ad e23d
00000070: 19e8 3b3e ad84 2b3e b08c 44be 06e6 6c3e
00000080: 602f 87be 128c 053e 6ea4 85be 6f2f cd3d
00000090: 3c3a 983e f0f8 1dbc d7a6 42be 3159 94be
000000a0: a56e 0b3e 6c0c b5be 7f8d 6dbd 1424 c63e
000000b0: 965d 0f3e 0b0b cb3d 90d3 4d3c 6e2e 19bf
000000c0: 5e7a 5ebf 35b3 6d3e 5211 acbd 17a1 65be
000000d0: 45fe 1cb5 9c70 29a4 4488 5abe 5243 b8be
000000e0: 4025 b8b2 40ea c9be be77 963e f601 d0be
000000f0: fc61 3435 6001 53be 77d1 3cbe 502a 9f3e
00000100: fba9 82be e27a 1abf 14a9 96be 8de9 153d
00000110: b8ca 27bd db19 d93d 05e4 bbbe 09d4 29be
00000120: cf7d 4ebc dc04 9abe 4192 47ba 01e6 893d
00000130: d423 a4bb 6cb1 f33d 052d 45bd 19f4 e83d
00000140: 44c4 2d3e 0a51 743e 3474 22be aea3 53bf
00000150: 1ef2 2bbe 5f9e c034 0f1b 40ba ae2b c9bc
00000160: fc83 e73e 4dd0 8dbd b35d bf3d 8e8a 1e3e
00000170: 120e d33d cd81 e9bc 40de 8dbd 0cc1 78be
00000180: 0d21 f9be 2e50 78b3 b51e 5d3e d962 8d3c
00000190: 75ee 91be 1152 813e 6ddb 1eb8 a387 0d00
000001a0: e295 2d39 099e 213d 08e5 6ebd a64d 8cbe
000001b0: 1af2 19be cccc 10bf 00f0 bdbe fcbe 3abe
000001c0: fdb7 3b3e 75c4 abbd a8a2 2f3f 88cb 15bd
000001d0: 67a4 293b ad3e 04bd a5aa 87be 46cb 173e
000001e0: db6c a73d 067c 1dbc 3203 143c 1131 94be
000001f0: 0662 d0bc b257 0c3e 1ce0 4bbe 743d 28ba
00000200: 3495 14be 1f6a 47be 74de 0c3f 9d9f 33bd
00000210: 9556 cdbe c33b b2bd 4b15 2bbe 0eb4 aebe
00000220: 3c5d ecb6 05f6 c095 107f 82be 671a 223d
00000230: 35d1 6f32 f7cc fd3c 3a76 1ebf 1cd8 813e
00000240: 6e8d 1100 a589 9e3d ceea 6abd 557e a0bd
00000250: 0ae5 4ebe a170 d73d cbbf 5d3e 05d0 83be
00000260: 54cc 1e3e 7929 7bbe ddc5 e2be f9ec f43e
00000270: fece 3bbf 9173 703e 89e6 a3b9 2729 b9be
00000280: 3536 54be 2cf8 77bf 3628 2cbe bab1 42bf
00000290: 82fb d23e c3b9 0cbe e065 4d3e a1b2 c33d
000002a0: f244 9c3e 1561 d1b5 558d cb3b 5083 d93c
000002b0: 441b bb3d 7c50 84be 6363 81bd e286 fd3d
000002c0: db56 213e 0d9e d1be a9f3 823d 12e3 49bd
000002d0: 9596 4c3d 963c aebb 6310 bb3d fe56 69bf
000002e0: b484 3fbe 634d 9ebc 43ab 423c 0f30 5e34
000002f0: 7b6d 96bb 3f36 8bbd 5022 2f3e aa19 c1be
00000300: be0b 1abf fb6f 6e3e 6006 cc3d d59d 013e
00000310: 4143 5fbf 3957 c9bd c800 90bd 0155 073d
00000320: 0301 8fbe 7e5e e73d 9639 3b3e ce5b 79bd
00000330: 627a f8be b4d8 08bc f17b a63e 69d5 8a3e
00000340: ee7a 02bf 50d4 a53d 4524 193d 4acd 213e
00000350: 7f3e 513d 66c1 86be 8663 2e3e f9b2 1e3e
00000360: 2adf 253c 61be 5cbe fc25 09bf 81c8 2fbd
00000370: 25ee fab0 a321 0aac 69a2 51bf b050 43bf
00000380: 4721 9dbc 2157 b5be 1c81 1f3e 118d 7e3d
00000390: 6936 83b0 15f4 f43d 1bfb b1be b594 dfbe
000003a0: 90a8 193b 5a7f e8bd e71c 0b3e 815e ec3d
000003b0: 6717 cf3e ed83 003f 072d d43d f6fb b03c
000003c0: c2a8 bcbc ef55 a43e c97f 60bb 215c 0e3e
000003d0: 0815 fdbe 875d 0f3e da00 703e 00e1 3e3e
000003e0: 7f5f 34bf ecf1 713e 4d6d f93d 549e 0bbe
000003f0: dd81 36bd 17fa 1139 d5bb 0dbd 7955 bc3c
0.46027973 -0.0023900776 0.008933077 0.044516888 -0.14849856 -0.30595154 -0.12299673 -0.011255634
0.089884266 -0.28393778 0.21879677 0.34120047 -0.054444067 -0.0016840124 -0.30481246 0.12895359
0.13922958 -0.43541825 0.007461593 8.8776666e-05 -0.0047228867 0.12347444 -0.08723239 0.059303664
-0.073797986 0.11033855 -0.33542803 0.110681586 0.18350257 0.1674983 -0.19194293 0.23134622
-0.26403332 0.13041714 -0.26102012 0.10018813 0.2973193 -0.009641871 -0.19008957 -0.28974298
0.13616426 -0.3536104 -0.05799627 0.386994 0.14000544 0.09914216 0.012562647 -0.5983647
-0.8690547 0.23212893 -0.08401741 -0.22424732 -5.848454e-07 -3.6741417e-17 -0.21341044 -0.3598886
-2.1437359e-08 -0.3943653 0.2938823 -0.40626496 6.719781e-07 -0.20605993 -0.1843928 0.3108697
-0.2552031 -0.60343754 -0.2942587 0.036599685 -0.040964812 0.10600635 -0.36697403 -0.16584791
-0.012603237 -0.30081832 -0.0007613041 0.06733323 -0.005009154 0.11899075 -0.048138637 0.11374683
0.169694 0.23859039 -0.1586464 -0.8267163 -0.16791579 3.5878017e-07 -0.0007328251 -0.02455696
0.45217884 -0.06924496 0.093440436 0.15482542 0.10305418 -0.028504277 -0.069271564 -0.24292392
-0.48658028 -5.7814923e-08 0.21593745 0.017259048 -0.2850224 0.25257924 -3.787449e-05 1.242519e-39
0.00016554401 0.039457355 -0.05832389 -0.2740299 -0.1503376 -0.56562495 -0.37097168 -0.18236917
0.18331905 -0.083870806 0.6860757 -0.036571056 0.0025885345 -0.032286335 -0.2649738 0.14823636
0.081750594 -0.009612089 0.009033965 -0.28943685 -0.025437366 0.13705328 -0.1990971 -0.00064178486
-0.14510041 -0.19474076 0.55026937 -0.04385339 -0.4010512 -0.08702805 -0.16707341 -0.34121746
-7.044202e-06 -7.793633e-26 -0.25487566 0.03957596 1.3959199e-08 0.030981524 -0.6189915 0.2536019
1.611939e-39 0.07741097 -0.057352833 -0.07836596 -0.20204559 0.10519529 0.21655194 -0.25744644
0.15507632 -0.2452754 -0.44291583 0.47837046 -0.7336272 0.23481585 -0.00031261545 -0.3616421
-0.20723803 -0.96863055 -0.16812214 -0.7605244 0.4120751 -0.13742737 0.20058393 0.09555555
0.3052135 -1.5599968e-06 0.0062119165 0.026551872 0.0913606 -0.25842655 -0.06317785 0.123792425
0.15755789 -0.40940896 0.06394131 -0.049288817 0.049948294 -0.005317281 0.09133985 -0.91148365
-0.18702966 -0.01932401 0.011881652 2.0692845e-07 -0.004590688 -0.06797456 0.17102933 -0.37714893
-0.6017417 0.23284905 0.099621534 0.12657864 -0.87211996 -0.098310895 -0.07031399 0.03304005
-0.2793046 0.1129732 0.18283686 -0.060878567 -0.4853087 -0.008352447 0.32516435 0.27115944
-0.50968826 0.08097136 0.037388105 0.15800968 0.05108499 -0.26319426 0.17030153 0.1549796
0.010124007 -0.21556999 -0.53573585 -0.042915825 -1.8257579e-09 -1.9629652e-12 -0.81888443 -0.76294994
-0.019180907 -0.35418037 0.15576595 0.06214625 -9.546969e-10 0.119606175 -0.3476189 -0.43668142
0.0023446418 -0.113524154 0.13585244 0.11541463 0.40447542 0.502013 0.10360151 0.02160452
-0.023029689 0.32096812 -0.0034255853 0.13902332 -0.49430108 0.14000522 0.23437825 0.18640518
-0.70458215 0.23627442 0.121790506 -0.13634616 -0.04455744 0.00013921443 -0.03460296 0.022989975

fc.2.bias f4 [10]
00000000: 6762 ee3c 58bb fcbd 0eec 02bc 2899 b93d
00000010: 710d dabd 1f39 34bd be0c 113e 89c6 05be
00000020: cb36 2c3e c85e 04be
0.029099656 -0.123404205 -0.00799085 0.09062415 -0.10647095 -0.043999787 0.14165017 -0.13064016
0.16817777 -0.12926781
